tutorial/cifar_net.pth (torch_old, 249602 bytes, 10 tensors)

conv1.weight f4 [6, 3, 5, 5]
000000 78 83 db 3c 78 6f 22 bc c0 80 7b 3c 30 46 fc 3c
       0.026796088 -0.0099142715 0.015350521 0.030795187
000010 78 fe 01 3c 10 af e2 3b 3a 7a c7 3d 4e 33 8e 3d
       0.007934205 0.0069178417 0.0974011 0.06943379
000020 74 fd 0d bd 00 fc fd bc c0 85 12 3d f2 43 de 3d
       -0.03466554 -0.031003952 0.035772085 0.10852803
000030 3b 97 76 bd 04 0d a8 bd 81 98 6b bd 47 1c d6 bd
       -0.06020282 -0.082056075 -0.057518486 -0.10454612
000040 18 3e 01 3c f4 df 95 bd 8a f2 a9 3d 18 c4 7a bc
       0.007888339 -0.07318106 0.08298214 -0.015305541
000050 94 a5 1f 3d 4e ea 98 3d d2 5d 19 bd 4e 4b d5 3d
       0.038976267 0.07466565 -0.03744299 0.10414754
000060 2a ec 82 3d 0e b0 84 3d f8 4d ba 3c e5 52 d3 bd
       0.06392701 0.06478892 0.022742257 -0.10318545
000070 de 61 c4 3d 52 ea 81 bd da fc be 3d 50 1d 94 3d
       0.09588979 -0.06343521 0.09325571 0.072321534
000080 34 6a 36 3d 88 c3 de 3c be 5e 8c 3d 80 12 7b bd
       0.044534877 0.027192846 0.06854008 -0.06129694
000090 fc d5 eb bd 53 c3 d1 bd 6e 2e 2f bd 74 ad c9 3d
       -0.11515424 -0.10242333 -0.04276889 0.09847537
0000a0 88 e7 6a bc 68 1a b4 3c 36 74 33 bd 6e 5c 4f bd
       -0.014337428 0.021985248 -0.043812 -0.050625257
0000b0 3c 2d fa bc 4e 41 a8 3d 1e 98 02 bd c8 b3 fb bc
       -0.030539148 0.08215581 -0.03188335 -0.030725375
0000c0 10 37 c5 bd bf 0f c3 bd e0 aa b0 3b dc 36 1a 3d
       -0.09629643 -0.09524488 0.0053914636 0.037649974
0000d0 34 23 de 3d 70 27 8e 3b 46 af d5 3d 62 4f 3a bd
       0.10846558 0.0043381974 0.104338214 -0.04548586
0000e0 d0 52 54 bc 54 27 e9 bd 60 01 7e 3d ae 8f d2 3d
       -0.012959197 -0.11384454 0.06201303 0.10281311
0000f0 ba b5 19 bd ba 19 77 bd b4 26 20 3d 80 10 40 3c
       -0.037526824 -0.06032727 0.03909941 0.011722684
000100 f7 f8 6b bd 1f 2a df bd 42 93 8e bd be b4 78 bd
       -0.05761048 -0.10896706 -0.06961681 -0.060719244
000110 25 be bf bd c0 51 d0 bc 60 5a a3 bb 3e ed e4 3d
       -0.09362439 -0.025429606 -0.004985139 0.11178063
000120 b0 05 33 bd 90 41 80 3b b0 0c 4a 3d fc a9 5c 3d
       -0.043706596 0.0039140657 0.049328506 0.053873047
000130 90 81 40 bd f0 85 ce 3b b8 ff 09 3d 4e db ad 3d
       -0.04699856 0.0063025877 0.033691138 0.08489095
000140 58 e7 07 bd 98 3f 74 3d c0 54 9b 3c db 79 b4 bd
       -0.03317961 0.05963096 0.01896131 -0.088123046
000150 58 9c 12 3d 60 ae 7b 3c 08 48 3c bd 70 95 1d bc
       0.035793632 0.015361398 -0.04596713 -0.009618148
000160 54 d5 bf bc 70 e9 9a 3d 54 92 a4 bd 8e 75 b4 bd
       -0.023417152 0.07564056 -0.080357224 -0.08811484
000170 da ba c9 3d 70 6a 5f 3d 9c 14 0e 3d 64 ed e3 3d
       0.09850092 0.054544866 0.034687623 0.11129263
000180 00 7c 5c 3d 40 30 ac 3b 68 28 9e 3c be c5 8c bd
       0.053829193 0.0052547753 0.019306377 -0.06873654
000190 4a 95 85 3d b9 e3 74 bd 38 62 39 bd 1a 7d ce 3d
       0.06522615 -0.059787486 -0.045259684 0.10082455
0001a0 b0 68 75 bd e2 de b2 3d dc eb 87 3d 86 71 ac bd
       -0.05991429 0.08733918 0.066367835 -0.084200904
0001b0 0e 35 b3 bd 70 1a 4a 3c 60 d3 3b bb 00 33 31 3d
       -0.08750354 0.012335405 -0.0028659925 0.043261528
0001c0 96 24 49 bd 48 bd 53 bd f4 02 df 3d 70 7a e4 3d
       -0.049107157 -0.051694185 0.10889235 0.111561656
0001d0 94 3a af bd 36 f7 a0 3d fa 6c 99 bd 4d 76 c2 bd
       -0.08556095 0.07859652 -0.07491489 -0.0949522
0001e0 10 65 4e 3c e4 42 bf bd 70 af 3f bd 98 d3 11 3d
       0.012597337 -0.0933893 -0.04679817 0.035602182
0001f0 00 80 8e 3c 12 ab 93 bd d8 94 0f bd bd e0 85 bd
       0.01739502 -0.072103634 -0.035054058 -0.06537006
000200 22 78 c9 bd ca 64 e1 bd 94 31 49 bd 0e 1c c2 3d
       -0.09837367 -0.11005552 -0.049119547 0.09478007
000210 4c e6 aa bc c0 e9 92 3b e0 05 54 bb 5c 1a 3f 3d
       -0.020861767 0.0044834316 -0.0032352135 0.046655998
000220 f8 ed b1 bc 1e 66 ac bd 98 16 0b bd 33 6f c7 bd
       -0.021719918 -0.08417915 -0.033957094 -0.097380064
000230 1e ce 29 bd ac 83 3c 3d 64 04 0a bd fe 10 c3 3d
       -0.041456334 0.04602401 -0.033695593 0.095247254
000240 20 79 e8 bb f0 16 d9 3d 50 7e f0 3b 70 d3 ea 3d
       -0.0070945174 0.10600078 0.0073392764 0.1146611
000250 80 01 1e ba 80 c4 31 3d 88 e9 ce 3c 50 65 bf 3d
       -0.0006027445 0.043400288 0.02525784 0.09345496
000260 74 80 9c 3d c0 3b 35 bd 88 b2 08 3c d8 50 7d 3d
       0.07641688 -0.044246435 0.008343346 0.061844677
000270 0c 9d 82 3d 6e d7 97 3d 40 64 0d bd ea cb 9b bd
       0.063776106 0.07414137 -0.034519434 -0.07607253
000280 91 15 5a bd 38 c1 9b 3d 00 29 4f bd 7e 2a b4 bd
       -0.053243224 0.07605213 -0.05057621 -0.08797167
000290 9e fc dc 3d 98 9c be 3d 3e bb db 3d 6c d4 39 bd
       0.107903704 0.09307212 0.10729073 -0.045368597
0002a0 ec c8 3e 3d 00 96 98 bb aa d8 34 bd 0f 9e 86 bd
       0.046578333 -0.0046565533 -0.04415194 -0.06573116
0002b0 54 a9 70 3d be 38 cb 3d a6 77 ca 3d 24 6e 9b bd
       0.058755234 0.09922932 0.098861024 -0.07589367
0002c0 94 1f ec bd 1d 1c 5d bd 96 3d 95 bd a8 d7 66 bc
       -0.115294605 -0.05398189 -0.07287137 -0.014089502
0002d0 30 e4 23 3c 18 f1 4e bd 08 36 e3 bd 2a fe 29 bd
       0.010003135 -0.050522894 -0.1109429 -0.041502155
0002e0 30 7c 73 3c 49 69 85 bd b6 43 41 bd f4 cd be bd
       0.014861152 -0.06514222 -0.047183715 -0.09316626
0002f0 04 ef c8 bd d0 6c d8 3b 38 34 c5 3d 88 2c da 3d
       -0.098112136 0.0066047683 0.096291006 0.10653025
000300 68 e9 af bc a8 61 b5 bc 44 b9 21 3d 18 1e 2f bd
       -0.021473601 -0.022141293 0.039483324 -0.04275331
000310 18 68 5c bc 50 41 92 bc c4 29 a9 bc 56 01 4f bd
       -0.013452552 -0.017853409 -0.020649798 -0.050538383
000320 5a b9 68 bd 40 34 23 bc 76 df c4 bd ac 82 47 bd
       -0.05681739 -0.009961188 -0.09612934 -0.048708603
000330 a0 1a 4a bb 6a 19 36 bd d5 2a 68 bd a0 f7 67 3d
       -0.0030838624 -0.04445783 -0.056681473 0.056632638
000340 94 7b d1 bc 7f 0b d7 bd 14 f0 50 3d 98 d4 7f bd
       -0.025571622 -0.105002396 0.051010206 -0.062458605
000350 d4 07 7c bd 88 fa bd 3c a8 b4 86 bd 54 8a 56 3d
       -0.061530903 0.023190752 -0.06577426 0.052378014
000360 4f 68 5d bd 3c f0 cd bd 2e 18 c5 3d b8 07 65 bc
       -0.054054555 -0.10055587 0.096237525 -0.013978891
000370 6e e2 93 bd be 48 76 bd 26 92 8b 3d c2 47 b4 3d
       -0.072209224 -0.060127966 0.06814985 0.08802749
000380 08 cc c0 bc a0 3c cd 3c 42 e2 d1 3d cc 46 c5 3d
       -0.02353479 0.025053322 0.102482334 0.09632644
000390 d8 6f a5 bc da 98 dd 3d 36 34 37 bd 31 14 b6 bd
       -0.020194933 0.1082017 -0.044727527 -0.0889057
0003a0 3b 51 6b bd 20 ab 98 3d 69 84 e5 bd 68 0f a9 3c
       -0.057450514 0.074545145 -0.11206896 0.02063723
0003b0 e2 cb 4b bd 00 7f 57 3b aa ed a3 bd c2 89 90 3d
       -0.049754985 0.0032882094 -0.08004315 0.07057525
0003c0 90 a7 b3 3d 64 b5 28 bd 66 c6 a1 3d 5c ae 87 3d
       0.087721944 -0.041188613 0.078991696 0.06625053
0003d0 3e 52 ca 3d b4 b5 83 bd 7e f0 90 3d 4b 7c e6 bd
       0.09878968 -0.064311415 0.0707712 -0.11254176
0003e0 ec 1f d7 3d 76 e1 91 3d c3 7e cb bd 78 01 bd bd
       0.105041355 0.071230814 -0.09936287 -0.09228796
0003f0 00 bc 9d 3c 2c ba 70 3d 86 d2 d1 3d c0 f6 9d 3b
       0.019254684 0.058771297 0.10245232 0.0048206747

conv1.bias f4 [6]
000000 50 21 8e 3b ac 60 9a bd c8 04 87 bc 2f 08 bb bd
       0.0043374673 -0.0753797 -0.016481772 -0.0913242
000010 1e 86 4e bd 6c d1 70 3d
       -0.050420873 0.05879347

conv2.weight f4 [16, 6, 5, 5]
000000 12 62 93 3d 28 23 1b 3c 4c cf 90 bd 94 54 35 3d
       0.0719644 0.009468831 -0.07070789 0.044270113
000010 c0 15 31 bb 58 ce 50 bc 98 62 81 bd d2 fe a6 3d
       -0.002702102 -0.012744509 -0.063176334 0.08154072
000020 62 b1 a2 3d 81 60 a4 bd 1c 04 63 3d 28 27 75 3c
       0.07943989 -0.08026219 0.05542384 0.014962949
000030 d8 c7 21 3d 90 b2 92 bc 28 ad 07 3d 24 ca 7f 3d
       0.039497226 -0.01790741 0.03312412 0.062448636
000040 fe a5 30 3d fe ae 89 3d 78 d2 80 3d 20 b9 7b 3b
       0.043127052 0.0672283 0.06290144 0.0038409904
000050 00 81 7a bc 88 55 bc 3c 08 ae 41 3d 38 d1 71 3c
       -0.015289545 0.022990003 0.04728511 0.014759354
000060 40 88 9e bd 98 fe bd 3c 1e 7d 83 3d 20 3b cc bb
       -0.077408314 0.023192689 0.064203486 -0.006232634
000070 90 a7 a6 3b b8 cc 2d bd fe dd 10 bd b8 c3 de 3c
       0.005085893 -0.042431563 -0.03536796 0.027192935
000080 30 72 6d 3c 0b e1 93 bd 28 2c 31 bc 00 05 6c 3d
       0.014492556 -0.07220658 -0.01081375 0.057621956
000090 9c 2b b3 3c e0 84 0e bc 64 74 20 3d 10 3a e9 3c
       0.02187138 -0.008698672 0.0391735 0.02847007
0000a0 c0 22 fc bc 2c 5d 3c 3d cf 21 80 bd 4a 31 a6 3d
       -0.030778289 0.045987293 -0.062564485 0.0811487
0000b0 48 03 eb 3c b4 ba e1 3c 98 1c 95 bd 05 64 11 bd
       0.028688088 0.027554847 -0.072808444 -0.035495777
0000c0 a0 42 9e 3c ac f8 7f 3d e8 fe 06 3d a0 90 1c bd
       0.019318879 0.06249301 0.03295794 -0.038223863
0000d0 d8 e9 84 3d b4 07 97 3d 28 9c 6b 3c 5c 14 b1 bc
       0.06489915 0.07374516 0.014380492 -0.021616153
0000e0 0e 2d fa bc a0 d5 4a 3d 20 c0 6f bc d4 1a a7 bc
       -0.030539062 0.049520135 -0.0146332085 -0.020398535
0000f0 84 4a 35 3d 66 49 4f bd c7 15 69 bd 80 d2 2d 3a
       0.044260517 -0.050607108 -0.056905534 0.0006630793
000100 08 0d 20 3d 3e 96 2f bd 2c 46 ea 3c 8c c2 5b 3d
       0.039074928 -0.04286789 0.028597914 0.05365233
000110 d2 ad 92 3d 4e b2 c7 bc bd 72 31 bd d0 6c 2f bd
       0.0716206 -0.024377014 -0.043322314 -0.04282838
000120 36 67 2e 3d 92 63 de bc 40 eb 53 bc d0 da 4d bc
       0.0425789 -0.027147088 -0.012934506 -0.012564376
000130 01 f0 71 bd d0 8a d9 bb 74 76 5a bd 8b e3 0b bd
       -0.059066776 -0.006638862 -0.053335622 -0.03415255
000140 5c 9c 24 3d 9c 20 29 bd 08 72 0a bc 00 14 93 38
       0.04018818 -0.041290864 -0.008450039 7.0132315e-05
000150 b0 90 61 3d 8b 88 22 bd 98 ef a3 3c 20 44 80 bc
       0.055069625 -0.039681 0.020011708 -0.015657485
000160 da c6 1b 3d b8 d9 24 3d e7 05 8f bd 20 ef a9 bc
       0.038031437 0.040246695 -0.06983548 -0.020743906
000170 68 d0 47 3c 24 8c 55 3d 28 5a 1d 3d a4 7f 33 3d
       0.012195684 0.0521356 0.038416058 0.0438229
000180 36 e9 83 bd 8c 16 00 3d 14 2a 71 3d c6 4e e6 bc
       -0.06440966 0.031271502 0.05887802 -0.028113734
000190 d2 82 82 3d b2 bd 81 bd 60 12 f8 bc a0 a7 4b bd
       0.06372608 -0.0633501 -0.0302822 -0.049720407
0001a0 bf 89 21 bd 72 d2 52 bd 43 f2 7b bd c0 58 d6 3b
       -0.039438006 -0.051470228 -0.061510336 0.0065413415
0001b0 64 e1 28 3d 38 80 4a 3c a2 16 a7 3d a0 e3 8a 3c
       0.041230574 0.012359671 0.08158614 0.016954243
0001c0 50 b9 55 3c 60 56 8b 3b 9c 1b 0e 3d 5d 3e a6 bd
       0.01304467 0.00425224 0.0346943 -0.081173636
0001d0 5d 62 64 bd 54 a4 11 bd 68 6c 4f bd f6 56 13 3d
       -0.05575787 -0.035557106 -0.050640494 0.035971604
0001e0 64 4d 64 3d 66 15 a0 3d 56 c2 fc bc fe 96 9b 3d
       0.055737868 0.078165814 -0.030854385 0.07597159
0001f0 50 71 13 bd c0 44 34 bc 50 b3 0e 3c 46 e3 a6 3d
       -0.035996735 -0.011002719 0.008709744 0.08148818
000200 ea e1 27 3d 48 9d 3c bc 70 81 4d 3d be bb bb bc
       0.040986933 -0.011512108 0.05017227 -0.02291667
000210 20 b7 ac bc d8 03 55 3d 8e d7 8a 3d bc b5 2d bd
       -0.021083415 0.05200562 0.06779395 -0.042409644
000220 e3 87 9a bd 93 25 a1 bd 10 1b 1d bd 5c 12 39 3d
       -0.075454496 -0.07868495 -0.038355887 0.045183524
000230 2d 3a a6 bd 42 d6 1a 3d c8 06 08 3d 54 4d cd 3c
       -0.08116565 0.03780199 0.033209592 0.025061287
000240 3c 76 34 bd 10 93 76 bc b0 e5 36 3d c0 f1 93 3c
       -0.04405807 -0.015049711 0.04465264 0.018059611
000250 08 05 63 3c 37 3f 9c bd ba 0a 0c 3d 54 96 59 3d
       0.01385618 -0.07629245 0.034189917 0.05312188
000260 18 18 51 bc fa 42 7e bd 97 2f 15 bd 68 3d 9a 3c
       -0.012762092 -0.062075593 -0.03642234 0.018828109
000270 06 f1 29 3d 5b 7e 79 bd ec 5a 96 3d d4 ef 36 bd
       0.041489623 -0.060911518 0.07341561 -0.04466231
000280 66 03 81 bd b8 a4 2a bc b0 ea 89 bd 94 a1 8d bc
       -0.06299476 -0.010415249 -0.06734216 -0.01728896
000290 59 2f 36 bd c4 3b c7 bc 80 9e db 3b b7 d4 0d bd
       -0.044478748 -0.02432049 0.0067022443 -0.03462669
0002a0 b6 f3 22 bd 3a c4 25 3d 98 e9 59 3c 14 f9 93 3c
       -0.039783202 0.04047034 0.013300322 0.018063106
0002b0 80 12 1a 3b 34 f8 9e bd bc 8a 93 3d 08 6b 87 3d
       0.0023509562 -0.07762185 0.07204196 0.066122115
0002c0 42 46 95 3d 6c ea 6a 3d a6 6f 05 3d f0 a6 75 bd
       0.07288791 0.05735247 0.03257718 -0.059973657
0002d0 c6 7f 90 3d ab f8 91 bd 10 77 3c bc 60 d9 25 bd
       0.07055621 -0.07127508 -0.011502996 -0.040490508
0002e0 88 30 5a bc f6 23 6c bd c2 52 72 bd 94 38 b5 3c
       -0.013317235 -0.057651483 -0.059160955 0.022121705
0002f0 53 fe 10 bd 40 77 ad 3a 84 70 77 3d 34 3b 27 bd
       -0.035398792 0.0013234392 0.060410038 -0.040827945
000300 ef 10 32 bd 9d a7 46 bd ea 58 9a 3d f6 02 14 3d
       -0.04347318 -0.048499692 0.0753649 0.036135636
000310 a2 05 8f 3d 90 9f 3b bc 63 ef a3 bd a2 36 c3 bc
       0.06983496 -0.011451617 -0.08004644 -0.023829762
000320 be 87 83 bd a4 81 6a 3d b8 c5 7f 3c 00 af ce 3b
       -0.06422375 0.05725254 0.015611105 0.0063074827
000330 d0 04 18 bc f8 36 96 bd ae a2 b3 bc 72 f5 a1 3d
       -0.009278491 -0.07334703 -0.021928158 0.07908143
000340 f9 1a 8b bd 74 07 d4 bc f4 ac b0 3c d6 56 db bc
       -0.06792254 -0.02588246 0.021566845 -0.026774805
000350 12 02 e0 bc 5a 70 18 3d 68 18 73 3c 2e 8a 7c bd
       -0.027344737 0.03721652 0.014837362 -0.061655216
000360 a8 ec 90 3d c0 49 5b 3c 51 93 00 bd 66 3d 8d bd
       0.070763886 0.013384283 -0.031390492 -0.068964764
000370 6e b7 81 3d c0 10 11 bb 7c 83 7b bd 10 63 16 3d
       0.063338146 -0.0022135228 -0.06140469 0.036715567
000380 d0 c6 fc 3c 50 d1 61 3d 10 1c 96 bd 25 9b 90 bd
       0.03085652 0.055131257 -0.07329571 -0.070608415
000390 b0 17 8e 3d 84 a9 8b 3d e0 da 17 3d 80 49 9e ba
       0.06938112 0.06819442 0.03707397 -0.0012076348
0003a0 90 a6 22 3c 60 2b 1e bc d4 ba da 3c 0d 52 9d bd
       0.009927407 -0.009653896 0.026700415 -0.076816656
0003b0 4a 76 16 bd 30 ba 1f bc a0 ff 09 3d 5e 8f 9f bd
       -0.036733903 -0.00974898 0.03369105 -0.07791017
0003c0 6e c6 a5 bc e6 64 16 bd 42 18 98 3d 68 8f 13 3d
       -0.02023622 -0.036717318 0.07426502 0.036025435
0003d0 c8 79 ee bc db 51 97 bd 88 73 f0 3c e0 47 8c bd
       -0.029110804 -0.073886596 0.029351965 -0.068496466
0003e0 68 bf 7c 3c 34 0b 36 3d e6 2b 1b 3d 8c a4 92 3d
       0.015426494 0.044444278 0.03788366 0.07160291
0003f0 00 4a e8 39 fc 55 8d 3c a8 22 7f 3c f0 2f f4 bc
       0.00044305623 0.017252915 0.015572228 -0.029808015

conv2.bias f4 [16]
000000 4a 30 32 bd d0 0f a8 3c b6 5c 98 bd f4 14 a2 3c
       -0.043503083 0.020515352 -0.07439558 0.019785382
000010 bb 10 97 bd f0 1c ba 3b a0 11 69 3d e0 74 94 bc
       -0.07376238 0.005679719 0.056901574 -0.018122137
000020 1c fe e4 bc 64 d3 22 3d 90 43 6e 3d f8 ad 88 bc
       -0.0279532 0.03975238 0.0581699 -0.016684517
000030 90 11 75 3d 5a 88 94 3d 26 6e 93 bd 70 cc 8d bb
       0.059831202 0.072525695 -0.071987435 -0.0043273494

fc1.weight f4 [120, 400]
000000 00 5b 86 3a a4 c6 02 bd 29 05 1e 3d be 4b b0 3c
       0.0010250509 -0.03192772 0.03857914 0.021520492
000010 a4 3e 5e 3c 78 54 30 3c 70 96 d5 bc f4 4e 1d 3c
       0.013564739 0.010762326 -0.02607271 0.009601343
000020 60 a5 9f bc d6 27 1b bd a5 80 15 bd 83 4b 34 3d
       -0.019488037 -0.037879787 -0.036499638 0.044017326
000030 fe f7 db 3c 58 a4 5a bc 80 a0 e8 3b 43 f7 08 3d
       0.02685165 -0.013344847 0.007099211 0.033438932
000040 ac 1f 60 bc 4a f9 f1 bc f9 be 13 3d 07 22 0c 3d
       -0.013679426 -0.029537816 0.036070798 0.03421214
000050 e6 3d 87 bc 7d e4 26 3d 62 5a 89 3c 97 db bb bc
       -0.016509008 0.040745247 0.01676673 -0.022931857
000060 8f 4d 18 3d f0 f2 8e bc 62 c1 88 3c 37 bb be bc
       0.03718334 -0.017449826 0.016693775 -0.02328263
000070 93 45 15 3d af 90 3e 3d c8 33 28 bd e0 eb 01 3c
       0.036443304 0.0465247 -0.041065007 0.007929772
000080 7b c3 17 3d ac a3 78 bc 16 6d fe 3c 70 48 d6 bb
       0.03705166 -0.015175741 0.031057876 -0.006539397
000090 d7 b8 c8 bc a5 a9 00 3d 40 c3 0b bc b5 81 2a bd
       -0.024502201 0.031411786 -0.008530438 -0.041627605
0000a0 48 b6 09 bd 8a 09 9b 3c 58 59 3d bd 3a 95 f0 bc
       -0.033621103 0.018925447 -0.046227783 -0.029368032
0000b0 32 10 f1 3c 94 5a 20 3c da 3a 84 bc 9e 59 eb 3c
       0.029426668 0.0097872205 -0.016141344 0.028729256
0000c0 79 9c 2e 3d a4 0b 8a bc 47 d2 43 bd 56 84 8c bc
       0.042629693 -0.016851254 -0.047807958 -0.017152946
0000d0 4d 9a 25 bd 60 dd 3b bb 3f be 09 3d 75 81 21 bd
       -0.040430356 -0.0028665885 0.0336287 -0.0394301
0000e0 ec 80 25 bc 70 fd a2 bc 34 d5 49 bc fa fc e2 bc
       -0.010101538 -0.019896239 -0.012318898 -0.02770852
0000f0 63 91 30 3d a0 f5 41 3c b8 62 4c bd 80 4a a5 bb
       0.0431074 0.011838347 -0.049898833 -0.0050442815
000100 b8 6f 4d bc 23 ba 3d 3d bd 10 0e bd e1 de 07 3d
       -0.012538843 0.046320092 -0.03468393 0.03317154
000110 52 10 85 3c 92 85 e8 3c 00 b7 ca bb ca 26 87 bc
       0.016243134 0.028384004 -0.006186366 -0.016497988
000120 9d ae c7 bc da dc ce 3c a0 3d 2a bc e4 20 50 3c
       -0.024375254 0.025251795 -0.010390669 0.012703154
000130 93 7c 0e bd f7 cf b4 bc a2 02 ef 3c 39 62 13 3d
       -0.034786772 -0.022071822 0.02917606 0.035982344
000140 50 e4 a7 bb e2 1f f9 3c 83 43 e9 bc c0 4f f8 bc
       -0.0051236525 0.03041071 -0.028474575 -0.030311465
000150 cf 0c 0c 3d 2a 62 22 bd bd ef 44 3d d4 0d 5a bc
       0.034191903 -0.039644398 0.048080195 -0.013308961
000160 68 b6 2c 3c 43 17 f6 bc 00 08 dc ba 75 35 26 bd
       0.010541536 -0.030040389 -0.0016787052 -0.040578324
000170 0d 0f ad bc 70 6b 3f bd 1b 08 2c 3d f4 09 1f 3c
       -0.02112534 -0.04673332 0.041999917 0.009706963
000180 6c fe 2d 3c 60 5a d8 bc aa b9 31 bd 3f db 24 3d
       0.010619741 -0.026410282 -0.043389954 0.040248152
000190 a0 cd c8 bc 2c 5f 57 3c 4f 76 4a 3d 40 91 a2 bc
       -0.024512112 0.013145249 0.049429234 -0.019844651
0001a0 a0 3e eb 3a fe 31 db 3c 4a 48 b2 bc 23 6b 29 3d
       0.0017947741 0.026757237 -0.021762986 0.04136194
0001b0 5e a1 13 bd 5d be 9c bc e5 c9 1a 3d e0 ec 2e 3b
       -0.036042564 -0.019133741 0.037790198 0.0026691481
0001c0 c4 88 71 3c 9a a3 8b 3c 48 12 10 bc a6 fa bc 3c
       0.01474208 0.017045785 -0.008793421 0.023068737
0001d0 c8 be 12 3c 68 c5 24 bc 16 92 22 bd d8 fd 89 3b
       0.008956619 -0.010056831 -0.0396901 0.0042111687
0001e0 b0 3c 8e 3b e0 e5 22 bc 9d af 0f 3d a0 c5 1b bb
       0.0043407306 -0.009942502 0.035079587 -0.0023768917
0001f0 47 b2 e3 bc ba 51 e3 bc 00 9f 94 39 7a 03 c8 3c
       -0.02779497 -0.027748931 0.00028347224 0.02441572
000200 e8 41 fb 3b 18 bb 3d bc 7a 54 2c bd a8 8a 07 3c
       0.0076677687 -0.011580251 -0.04207275 0.008272804
000210 16 3d d7 3c 40 fc 14 bc c0 9a d8 bb 02 e0 db 3c
       0.026274245 -0.009093344 -0.0066102445 0.026840214
000220 8c 75 00 bd 7b 95 3e 3d 60 21 9d bc 00 58 bb 3b
       -0.0313621 0.046529274 -0.019180954 0.0057172775
000230 68 d5 a0 bb d4 2b 74 3c 56 f9 0b bd a2 5d a5 3c
       -0.0049082525 0.014903028 -0.034173332 0.02018625
000240 3a 17 df 3c 25 c2 09 bd 52 49 c9 3c 6a 15 8c bc
       0.027232755 -0.033632416 0.024571095 -0.017100055
000250 50 42 dd bc 30 e8 f0 bc 00 c0 21 38 4a fa ab 3c
       -0.02700916 -0.02940759 3.8564205e-05 0.02099337
000260 4f 32 36 bd 22 f6 2d bd 79 3b 1e 3d 65 5c 23 bd
       -0.04448157 -0.04247106 0.038630936 -0.039883036
000270 38 5c 08 3c 05 dc 0c 3d 98 d5 ca bb 02 1b d4 3c
       0.008322768 0.034389514 -0.006190013 0.025891785
000280 ec 77 21 3c 7f 2b 42 bd 00 eb 3d 39 e0 41 68 3b
       0.009855252 -0.047404762 0.00018111989 0.0035439655
000290 ad a1 f5 bc 00 ca 32 ba 64 b0 72 3c ca da e7 bc
       -0.02998432 -0.00068202615 0.014812563 -0.028302569
0002a0 60 3c 4b 3c 32 bf e4 3c 4e 38 8b 3c b4 30 3c 3c
       0.012404531 0.0279232 0.016994622 0.011486221
0002b0 3b d7 2f bd 14 e0 23 3c 96 d3 b6 3c 00 2a a3 3b
       -0.04292987 0.010002155 0.022317689 0.004979372
0002c0 ca 3d c3 bc 87 94 1e 3d 48 08 56 bc c0 4c 05 ba
       -0.023833174 0.038715865 -0.013063498 -0.0005084984
0002d0 3b ab 14 3d f8 ed 33 bd 10 5b 0a bd 51 42 2e 3d
       0.03629611 -0.043928117 -0.03377825 0.042543713
0002e0 25 7e 02 bd da 1d fe bc 40 ed 98 ba 7e 95 20 bd
       -0.031858582 -0.031020094 -0.0011667386 -0.039205067
0002f0 3d b8 26 3d 77 85 af bc b2 05 a9 3c de 75 85 3c
       0.040703047 -0.021425946 0.020632599 0.016291555
000300 3e 73 e1 3c 40 ba a2 3b 5a 26 93 bc a7 00 46 3d
       0.027520772 0.0049660504 -0.017962623 0.048340466
000310 92 47 fd 3c c0 d3 dc ba 8d 45 01 3d 40 83 fd 3a
       0.030917916 -0.0016847774 0.03156047 0.0019341484
000320 65 38 31 bd 0a 85 ef bc 5c 4a 06 bd 7a 70 fc bc
       -0.043266673 -0.029238243 -0.03278576 -0.030815352
000330 2c 5f 5f 3c 07 86 1e 3d f0 bb a5 bc b0 01 9d bc
       0.013633531 0.038702037 -0.020231217 -0.019165844
000340 e0 d5 0f bc 00 b4 b8 39 6a fd 11 bd 92 a8 00 bd
       -0.008779019 0.00035229325 -0.035642065 -0.03141076
000350 dc 39 58 3c 92 47 f2 3c 77 cf 41 bd 2b 64 07 3d
       0.0131973885 0.029575143 -0.047316995 0.033054512
000360 6c e1 29 bc d4 fe 2a 3c 43 49 db bc 32 27 d3 3c
       -0.010368686 0.010436732 -0.026768332 0.025775526
000370 eb 16 47 3d a8 7e 3b bc a0 b7 13 bd 54 19 07 3c
       0.04860584 -0.011443771 -0.03606379 0.008245785
000380 e3 32 0c 3d e9 b1 0a 3d 38 18 5a bc ae 43 e5 3c
       0.034228217 0.033861075 -0.013311438 0.027986374
000390 43 c3 47 3d 00 e0 4a bd ad 9d 39 bd 31 e2 39 3d
       0.0487702 -0.04953003 -0.045316387 0.04538173
0003a0 e0 53 2d bc 7d 84 e8 bc a3 0a 45 3d 5d eb 44 3d
       -0.010579079 -0.028383488 0.048105847 0.048076022
0003b0 18 08 8a bb 14 6f 60 bc 87 14 17 3d 6f 4e 40 bd
       -0.0042123906 -0.013698358 0.03688481 -0.0469498
0003c0 a0 f9 7a 3b cb c2 0d 3d 3f 58 0e 3d 62 37 ed 3c
       0.003829576 0.034609597 0.034752127 0.028957073
0003d0 70 6e 85 bc a0 83 93 ba 28 24 e7 3b 6c 6c 69 bc
       -0.016288012 -0.0011254437 0.0070538707 -0.014247041
0003e0 73 d7 3a bd 40 c6 2d bd a5 49 01 bd 49 ab 29 3d
       -0.045615625 -0.042425394 -0.031564374 0.041423116
0003f0 eb 62 47 3d b3 47 da bc 28 14 f5 bb 8a 76 b5 3c
       0.04867832 -0.026645517 -0.0074792095 0.02215125

fc1.bias f4 [120]
000000 aa 47 c4 3c e8 d2 ef bb c8 c7 04 bc 6d eb ed bc
       0.023959953 -0.007318843 -0.008104272 -0.029042924
000010 19 2e 3f 3d 19 fb 27 3d d9 ef 32 3d 1f dc 43 3d
       0.04667482 0.04101095 0.043685768 0.047817346
000020 52 11 f1 3c e0 d0 e7 bc a6 6e 89 bc c0 2d e3 bb
       0.029427204 -0.028297842 -0.016776394 -0.006932944
000030 11 07 47 3d 4e ce f0 3c bb 2b 0d 3d a4 84 5a 3c
       0.048590723 0.029395249 0.034465533 0.013337288
000040 61 d6 0e 3d 3d ae 34 3d 91 0a 28 3d b0 8c 71 3b
       0.034872416 0.04411148 0.041025702 0.0036857538
000050 94 54 6d bc e1 e1 0c 3d bb c0 3d bd 90 a2 3e bd
       -0.014485497 0.034395102 -0.04632638 -0.04654175
000060 ee 2e 81 3c ad 5e 30 3d fc fd 0a bd 00 fd b5 b9
       0.015769448 0.04305904 -0.033933625 -0.0003471151
000070 d9 75 32 3d e6 40 ac 3c 90 82 ce 3b 1d 25 0b 3d
       0.04356942 0.02102704 0.0063021854 0.03397094
000080 14 1c 40 3c bd 20 4c 3d ba 09 dc bc 43 df f7 bc
       0.011725444 0.04983591 -0.026860107 -0.030257827
000090 00 fc 93 ba 34 2d 2d bc 80 ab 24 3b 00 4c 3b 3b
       -0.0011290312 -0.010569859 0.0025126636 0.0028579235
0000a0 23 fa 46 3d 18 1f 10 3c fa 87 23 bd 5b f3 32 3d
       0.048578393 0.008796476 -0.0399246 0.043689113
0000b0 87 b2 4a 3d 12 39 1d bd 86 14 1c bd 0a 75 84 bc
       0.049486663 -0.038384505 -0.03810551 -0.01616909
0000c0 72 91 80 3c c2 55 c8 3c 7d d0 2d bd 5f d1 26 3d
       0.015694354 0.024454955 -0.042435158 0.040727016
0000d0 a8 12 8d 3b b0 46 c7 bc 4d 1d bc bc ec 38 20 bc
       0.0043052025 -0.024325699 -0.02296319 -0.009779196
0000e0 5e 74 04 bd f7 37 14 3d 02 99 48 bd 85 b9 32 3d
       -0.03233754 0.036186185 -0.048974045 0.043633956
0000f0 67 98 41 3d 07 77 c1 bc 03 03 22 bd ee 16 de 3c
       0.047264483 -0.023616327 -0.039553653 0.027110543
000100 21 ea 01 3d 5a a1 83 bc e9 aa 23 3d e0 1c 79 bc
       0.031717423 -0.01606815 0.039957915 -0.015204638
000110 78 5b 05 bd 4d 29 eb bc d8 45 a9 bb af ab 3d 3d
       -0.032557935 -0.028706217 -0.0051657967 0.04630631
000120 50 3c 83 bb a5 ab 26 3d ea bc 2a bd 52 86 f3 3c
       -0.0040049925 0.040691037 -0.04168407 0.029727135
000130 33 e8 07 3d 10 74 e5 bb e0 04 13 bd 1a d4 f2 3c
       0.033180427 -0.007002361 -0.03589332 0.029642154
000140 8a 2d 2b bd 98 28 39 bc 12 58 ab 3c 10 c2 df bc
       -0.041791476 -0.011301182 0.020916019 -0.027314216
000150 ca b3 ac bc 89 0b 14 3d c0 3b 86 3a cd 83 2a 3d
       -0.021081824 0.036143813 0.0010241196 0.0416296
000160 ca ee 87 bc 72 e4 23 bd 80 ba e3 3b fd 80 1e bd
       -0.016593356 -0.040012784 0.0069497228 -0.03869723
000170 8b 87 3a 3d 44 22 64 3c ad 4c df bc d0 05 6b 3b
       0.04553942 0.013924185 -0.027258242 0.0035861619
000180 60 31 06 bd b5 45 19 bd 6b 67 48 bd a8 a6 b1 bb
       -0.03276193 -0.037419993 -0.048926752 -0.0054214783
000190 d8 6d 41 3c fc a1 90 bc e8 03 b4 bb 4d 4f 08 3d
       0.011805974 -0.017655365 -0.0054936297 0.033278752
0001a0 03 27 2a bd 0b 37 3f 3d 40 cf a7 3a f8 46 4b 3c
       -0.04154111 0.046683352 0.0012802854 0.012407057
0001b0 a2 a9 f5 3c f0 71 fd 3b 0e e5 83 3c d6 4c bb 3c
       0.029988114 0.0077345297 0.016100433 0.022863787
0001c0 2a e6 b6 bc de 56 8e 3c 67 35 ea bc 02 4c 86 3c
       -0.022326548 0.017375406 -0.028589917 0.016393665
0001d0 50 a5 13 3b ba 1d 81 bc 4e dc d4 3c 20 5e c8 bc
       0.0022528954 -0.015761245 0.025983956 -0.024458945

fc2.weight f4 [84, 120]
000000 92 e9 06 3d 83 e0 ae bd 62 47 a1 3d b2 66 84 3d
       0.032937594 -0.08538916 0.07874943 0.064649
000010 d8 9b 13 3d 00 7b 78 bb 9f e5 89 bd 6c a7 9c 3c
       0.036037296 -0.003791511 -0.0673325 0.019122802
000020 da 64 2a bd 26 f0 ad 3d c2 88 3a bd 56 6a a2 bd
       -0.041600086 0.0849307 -0.04554058 -0.07930438
000030 00 c0 26 39 5e 1d f3 bc 70 09 b0 bb 4f d9 37 bd
       0.00015902519 -0.02967709 -0.005372219 -0.044884976
000040 64 43 18 3d e0 d9 f6 3b 37 33 43 bd b2 a2 10 bd
       0.037173644 0.007533297 -0.047656264 -0.03531141
000050 c8 32 6e bc ca 25 b5 3d 02 92 98 bd 9c 28 ba bc
       -0.014538474 0.08845098 -0.07449724 -0.022724442
000060 5e bc ac bd ac 89 75 3d 6a 92 89 3d af 82 56 bd
       -0.08434366 0.059945747 0.067173794 -0.052370723
000070 ba d1 01 bd 0f 36 97 bd a2 24 ad 3d fc 0e 6c 3d
       -0.03169415 -0.07383358 0.08454253 0.057631478
000080 d2 f5 a0 3d b4 35 9e 3c e4 1c ea 3c 68 a9 d2 3c
       0.078593865 0.019312717 0.02857823 0.025715545
000090 88 ed d7 3c 0d 5c 80 bd cc c1 19 bd 77 75 7e bd
       0.02635838 -0.06267557 -0.037538335 -0.062123742
0000a0 dc d4 1e 3d ab ce 36 bd 6e e8 b0 3d cc ba 52 3d
       0.038777217 -0.044630688 0.086380824 0.051447675
0000b0 eb ff 60 bd b5 15 12 bd da c7 b5 3d 0c bd 7b bd
       -0.054931562 -0.035665233 0.08876009 -0.061459586
0000c0 7f 63 16 bd c0 e0 9a bd 44 6a d7 3c 00 eb 14 3a
       -0.03671598 -0.07562399 0.026295789 0.00056807697
0000d0 e6 2a 78 bd b0 3d c7 3c 00 19 08 bc e6 c4 aa 3d
       -0.060587786 0.024321407 -0.008306742 0.08338337
0000e0 9b 12 84 bd 71 87 6e bd 68 6f b1 3c 9e e7 a9 3d
       -0.06448861 -0.058234636 0.021659568 0.082961306
0000f0 f2 62 66 bd e5 40 9a bd b8 ef d1 bc 08 5b d5 3c
       -0.056246705 -0.07531909 -0.025627002 0.026044384
000100 7c 0b da 3c 2c 99 b1 3d e8 f4 28 3d 02 b3 ba 3d
       0.026616804 0.08671793 0.041249186 0.09116174
000110 c4 96 fb bc 80 f0 af 3c 5c 47 2b bd 98 8d 26 3d
       -0.03071154 0.021476984 -0.0418161 0.040662378
000120 9c c2 d8 bc 86 92 90 bd 24 18 81 bc f4 95 2d 3d
       -0.026459984 -0.07059197 -0.015758581 0.042379335
000130 38 c2 45 3d fe f6 a5 3d a4 06 42 bd 21 f1 55 bd
       0.048280925 0.08103751 -0.047369614 -0.05223191
000140 50 32 1d bc ec b3 a3 bc 74 e9 76 bd 3c ba fb 3c
       -0.009594515 -0.019983254 -0.060281232 0.030728452
000150 a7 ab 9b bd 00 6e 88 3c 30 57 a9 bc e1 70 15 bd
       -0.076010995 0.016654015 -0.020671457 -0.036484603
000160 00 54 95 3d d8 f2 29 bc 10 7d ad 3c cc 2d 9b bc
       0.07291412 -0.01037284 0.021177799 -0.018942736
000170 e8 9e eb 3c 00 90 4f b9 ee 71 a5 bd 18 14 f4 bc
       0.028762296 -0.00019794703 -0.08078371 -0.029794738
000180 40 9a 74 bc e6 34 29 bd 8c 23 aa bd 7c bd 90 3d
       -0.014929354 -0.041310214 -0.08307561 0.07067391
000190 0a be fe bc 60 05 b9 3b f0 be 9a bb 64 a1 39 3d
       -0.031096477 0.0056463927 -0.0047224686 0.04531993
0001a0 de 74 b6 bd c0 d8 28 3b e0 4f d1 3b 64 21 44 3d
       -0.089090094 0.0025763959 0.0063876957 0.047883406
0001b0 44 be b6 3d fc a2 7b bd f2 81 99 3d b0 ab b5 3d
       0.08923009 -0.06143473 0.07495488 0.088706374
0001c0 41 f0 a1 bd 45 03 19 bd 00 3f 78 ba 08 b1 59 3d
       -0.07907153 -0.037356634 -0.0009469837 0.053147346
0001d0 da 85 18 bd fa 10 80 bd 08 33 46 3d a0 f7 31 3d
       -0.037237026 -0.06253238 0.04838851 0.043449044
0001e0 c8 60 7d 3c 82 88 a6 bd c4 55 09 3d 80 21 62 bb
       0.015464969 -0.081315055 0.033529058 -0.003450483
0001f0 d8 3a b8 bd 68 d0 82 3d 94 dc 99 bc d0 34 80 3c
       -0.089955986 0.063874066 -0.018781938 0.015650183
000200 a0 e5 9b bb d4 58 c0 3c a8 d1 39 bc ea 12 ba 3d
       -0.004757598 0.023479857 -0.01134149 0.09085639
000210 72 eb b8 3d 76 19 9e 3d f4 b5 46 3d 4c 18 e4 bc
       0.09029283 0.077197 0.048513368 -0.027843617
000220 c4 88 ad bd f0 7f f8 3c 48 44 57 3d 88 7a 53 3c
       -0.084733516 0.030334443 0.052555352 0.012907632
000230 9a da 9f bd 78 07 2f 3d a0 4e 5b bc 24 e7 3a 3d
       -0.07805367 0.042731732 -0.013385445 0.04563059
000240 8f 87 85 bd 65 78 48 bd c0 a0 1e bc 1d 19 6c bd
       -0.065199964 -0.048942942 -0.0096818805 -0.057641137
000250 c4 46 1c 3d 20 44 53 bc a0 db 00 3b 50 1e 5b 3c
       0.038153425 -0.01289466 0.0019662157 0.013373926
000260 c0 34 31 3d 6a 7f 81 3d 5a f6 b0 3d 4a b7 6b bd
       0.043263197 0.063231304 0.08640738 -0.057547845
000270 a0 ed 29 3c f8 87 75 3d f4 0f ea 3c 28 3b 6c bc
       0.010371596 0.059944123 0.02857206 -0.014418401
000280 20 5f 3e bc 60 18 6c 3d 78 da 2f bd 40 fc d4 3b
       -0.011619359 0.057640433 -0.042932957 0.006499797
000290 d8 f3 2d bc 2c 8b a4 3d b0 2f a7 3d e8 e9 32 3d
       -0.010617219 0.080343574 0.081633925 0.0436801
0002a0 28 a3 52 3d 8c d9 57 bd 48 14 72 bc 80 6f 78 bd
       0.05142513 -0.052697703 -0.014775343 -0.06065321
0002b0 58 5c a0 3d 50 ce 97 bb 4c 97 b2 bd 38 e2 e3 bc
       0.07830113 -0.0046327487 -0.08720264 -0.02781783
0002c0 25 1c 00 bd a4 0a c9 bc 74 fc a1 3d 14 15 ad bd
       -0.03127684 -0.024541207 0.0790948 -0.08451286
0002d0 e0 bc 3e 3b 08 10 cd 3c f0 c2 e5 3b 42 73 94 bd
       0.0029104277 0.025032058 0.0070117638 -0.07248546
0002e0 fd 3c 85 bd 6c 0a e1 bc 29 92 9e bd 91 df 07 bd
       -0.06505773 -0.02747079 -0.077427216 -0.033172194
0002f0 a0 d5 fd bb 00 44 e7 ba c0 ed 59 bb 34 26 8e bc
       -0.0077464134 -0.0017644167 -0.0033253282 -0.017352201
000300 25 df 2e bd 0c d7 27 3d 10 0f 99 bc 46 88 95 bd
       -0.042693276 0.04097657 -0.01868394 -0.07301383
000310 3a 6b 6c bd 90 0c 8c 3d 8c 18 94 3d f8 95 0b bc
       -0.057719447 0.068383336 0.072312444 -0.008519642
000320 7c 81 71 3d 60 69 c8 bc 06 3c 5b bd 39 03 4b bd
       0.058961377 -0.02446431 -0.05352404 -0.04956362
000330 2c e4 85 3d 5b 2e a9 bd c8 05 86 3d e4 c6 7a 3d
       0.06537661 -0.08260795 0.065440714 0.061224833
000340 3a 39 87 bd 4e fa 5d bd 2a d9 99 3d 20 21 54 3c
       -0.06602712 -0.054193787 0.07512124 0.012947351
000350 2f 0d 6a bd 53 b4 5a bd bd 32 89 bd e0 c7 b8 bc
       -0.05714148 -0.053394627 -0.06699131 -0.022556245
000360 7c 2e 51 3d 30 00 aa bc 1e 82 b1 3d 88 e8 9f 3c
       0.05106972 -0.020752043 0.08667396 0.01952006
000370 f0 2f b6 bd c4 43 7d bd f8 77 a3 3d 50 01 7b bc
       -0.08895862 -0.061832204 0.079818666 -0.015320137
000380 c8 88 c3 bc ae 6c b4 bd 18 07 21 bc 90 95 55 3d
       -0.023868933 -0.088097915 -0.009828351 0.052144587
000390 f0 26 03 bc e4 0a 83 3d c0 cb f7 3a 50 8e bf bb
       -0.008004889 0.063985616 0.0018905327 -0.0058458224
0003a0 af ff 9d bd b4 47 9a bd 9c ad 68 3d 0e f1 ba 3d
       -0.077147834 -0.075332075 0.05680619 0.09128009
0003b0 ba 81 21 bd d8 98 6b bd 02 95 93 bd f0 49 c2 3c
       -0.039430358 -0.05751881 -0.07206155 0.023716897
0003c0 8e a4 8a 3d 89 86 3b bd 2e ce 94 3d f8 82 74 bc
       0.067696676 -0.0457826 0.07265888 -0.0149238035
0003d0 30 5a bc 3b 68 c8 5b 3d 84 02 a5 bc 20 97 b5 bc
       0.005748056 0.05365792 -0.020142801 -0.022166789
0003e0 a8 83 3c bc e2 1c 8a 3d 98 ce 8b 3d 00 46 0b b9
       -0.011505999 0.0674379 0.06826514 -0.0001328215
0003f0 c1 08 88 bd 6a 79 86 bd c0 fc 3f 3b e0 d3 73 3b
       -0.06642295 -0.06566127 0.0029294938 0.0037205145

fc2.bias f4 [84]
000000 00 9f 73 bd 7c 11 56 3d c4 72 12 3d 3e 2a 2d bd
       -0.059477806 0.05226277 0.03575398 -0.042276613
000010 22 0b ae 3d 12 46 32 bd 7c cc 1b bd 48 10 6c bd
       0.08498217 -0.043523856 -0.03803681 -0.057632715
000020 60 37 1e bd 2d 15 a3 bd fc ca 64 3d af 27 8c bd
       -0.03862703 -0.07963023 0.055857643 -0.068435065
000030 57 06 3d bd 4a ac b3 3d 5c b2 8d bd be e0 9a 3d
       -0.046148624 0.08773096 -0.06918785 0.075623974
000040 b0 67 a1 3c fc 53 a5 3d 70 2c ea 3b 7c d6 a8 3d
       0.019702762 0.080726594 0.0071464106 0.08244035
000050 e0 f6 55 3d a4 4b b3 bd 60 71 dc bb f7 d8 09 bd
       0.05223739 -0.08754662 -0.0067273825 -0.03365418
000060 e0 00 49 bb f0 42 fa 3b 78 f6 0c bc f6 5c 7d bd
       -0.0030670688 0.007637374 -0.008603685 -0.061856233
000070 15 9c 71 bd 4e f7 56 bd ac 89 ab 3c 6e 42 8f 3d
       -0.058986742 -0.052481942 0.02093967 0.06995092
000080 00 fc 45 3d e0 20 65 bd 80 73 66 3c b1 ae 74 bd
       0.04833603 -0.055939555 0.014065623 -0.05973691
000090 e0 83 04 3c 32 4e b0 3d 5c d6 e0 bc 28 44 56 3d
       0.008088082 0.086086646 -0.027445965 0.052311093
0000a0 52 b0 80 bd 43 15 51 bd d6 a1 87 3d 68 16 bb 3c
       -0.062836304 -0.051045667 0.06622665 0.022837833
0000b0 5c 6d 6c bd 4c 80 0c 3d 58 41 38 3d 8c 3f f4 3c
       -0.05772148 0.03430204 0.04498419 0.029815458
0000c0 aa f8 92 bd 06 82 9f bd 1a 61 93 3d d5 dd a0 bd
       -0.07176335 -0.07788472 0.07196255 -0.07854811
0000d0 34 8e 56 3d d6 9a 84 3d 42 f0 8b 3d da 08 17 bd
       0.05238171 0.06474845 0.06832935 -0.036873676
0000e0 b0 2a 0e 3d 74 21 b2 3d e4 05 aa 3d 24 32 39 3d
       0.03470868 0.08697787 0.08301905 0.045213833
0000f0 f0 d4 36 3d 94 a0 a4 bc 12 94 b6 3d 98 e4 11 3c
       0.044636667 -0.0200961 0.08914961 0.008904599
000100 dc 22 ba bd c8 f8 57 bd 58 a9 5e 3c 40 3f fa 3b
       -0.0908868 -0.05272749 0.013590179 0.0076369345
000110 4e 06 8e 3d 48 c8 a6 bc 60 43 5b 3c d8 d8 a6 bd
       0.06934796 -0.020359173 0.013382763 -0.081468284
000120 fc 9c 34 3d c0 38 1a 3c f0 0b dc 3c 5c 18 a9 bd
       0.044095024 0.009412944 0.026861161 -0.08256599
000130 d0 15 44 bd 6a fc ac 3d c6 6e b3 bd d3 83 b6 bd
       -0.047872365 0.08446582 -0.08761363 -0.08911862
000140 c0 e2 aa 3d 9b 1b 38 bd 24 bd 95 3d 94 5e 82 bd
       0.083440304 -0.0449482 0.07311466 -0.063656956

fc3.weight f4 [10, 84]
000000 33 d9 ad bd 6c 02 a0 bd 2c 7a cc bd 58 09 cb bc
       -0.08488693 -0.07812962 -0.0998424 -0.024784729
000010 6a 15 36 bd 94 7e a8 bd d2 f3 13 3d c0 23 95 bc
       -0.044454016 -0.08227268 0.036121197 -0.018205523
000020 c7 d9 aa 3d a0 11 1e bc fa 88 18 bd 7a 3a 32 3d
       0.08342319 -0.009647757 -0.037240006 0.0435128
000030 2b f7 a6 3d f6 1d 90 bd 64 34 c9 3c b4 37 b3 bd
       0.08152612 -0.070369646 0.024561115 -0.08750859
000040 ad d8 b7 3d 9e 3d 6c 3d fc 41 13 bd 80 dd 50 3a
       0.089768745 0.05767595 -0.0359516 0.00079675764
000050 aa 33 9c bd d2 2b 19 bd 70 f4 2d bc 60 3b e7 bc
       -0.07627042 -0.037395306 -0.0106173605 -0.028226554
000060 f0 d6 37 3c 4f f7 c4 3d 4d 73 cf 3d 54 34 d8 3c
       0.011220679 0.09617483 0.10129414 0.02639214
000070 d7 0a af bd e1 f4 4d bd d5 b5 b3 3d d2 fc 1a 3d
       -0.085469894 -0.050282363 0.08774916 0.037838764
000080 9b e7 a2 3d 14 37 8b bc d2 11 84 bd 0e 23 d9 bd
       0.079543315 -0.016994037 -0.064487115 -0.10602389
000090 b5 89 68 bd 3b 32 b6 3d 8f 41 9b bd c3 b0 9a 3d
       -0.056771953 0.088962995 -0.07580864 0.07553246
0000a0 60 0f cf bd 74 2e 87 bd c0 00 81 3b c3 5e c9 3d
       -0.101103544 -0.06600657 0.003936857 0.098325275
0000b0 32 15 a9 bd 71 39 60 bd 0c b9 96 bc 45 71 d1 3d
       -0.08255996 -0.05474228 -0.018398784 0.102266826
0000c0 49 9b cf 3d 72 38 33 bd 44 94 bc 3c 0c bc ff 3c
       0.1013704 -0.043755002 0.023019917 0.031217597
0000d0 66 1f 9e bd 8f 4a 90 3d 40 de b0 bd 25 ed c1 bd
       -0.077208325 0.07045471 -0.08636141 -0.0946906
0000e0 99 31 d6 3d 0a 88 55 3d 74 f9 8a bd 22 eb 1e 3d
       0.10458679 0.05213169 -0.06785861 0.03879846
0000f0 5c 0e e6 bc 79 5d bb 3d 68 f7 3b bc db a3 d9 3d
       -0.028083019 0.09148688 -0.01147256 0.10626956
000100 a0 0c 52 bb 5c fc f4 3c 55 bc b8 3d 94 a1 b2 bc
       -0.0032050982 0.02990549 0.090202965 -0.021805562
000110 db 88 96 3d c0 be 57 3b d2 8b 9a bd 00 87 ec bb
       0.07350322 0.0032920092 -0.075462 -0.0072182417
000120 64 9f d6 bc ee d8 59 3d a8 2a dd bd 90 dc 39 3c
       -0.02619905 0.053185396 -0.10799152 0.01134409
000130 a9 a6 ca bd ec 9f d0 bc 4c 58 bb bd 2a 1b 95 bd
       -0.09895069 -0.025466882 -0.09147701 -0.07280572
000140 5f d5 c3 3d 44 1d a7 bc 5d 4c df 3d 74 92 b4 3c
       0.09562182 -0.020399697 0.10903237 0.02204249
000150 8a f9 79 3d 2d da 98 3d c8 e1 91 bd b2 fe 86 bd
       0.061028995 0.07463489 -0.071231425 -0.06591548
000160 cb da b0 bd 7e 15 05 3d 30 db 15 bc b6 7d 52 3d
       -0.086354814 0.0324912 -0.009146497 0.05138942
000170 ac 51 88 3c 8c 51 97 bc 88 d0 a8 bc f4 37 d8 3c
       0.016640507 -0.018471502 -0.020607248 0.026393868
000180 f9 44 c2 3d 1b 0e 93 3d 41 d9 be 3d 9c f1 a5 3c
       0.09485812 0.07180425 0.09318782 0.02025681
000190 ca 14 5f 3d a6 6d 7c 3d d4 41 c4 bc f0 97 e7 bb
       0.054463185 0.061628006 -0.02395717 -0.007067673
0001a0 5c c9 e1 3c 03 87 a1 3d 03 b6 de 3d 33 d5 bc 3d
       0.027561836 0.078870796 0.1087456 0.09220352
0001b0 42 93 49 3d 68 06 4a bd 2f f8 48 bd 54 65 e7 3c
       0.0492127 -0.049322516 -0.04906481 0.02824656
0001c0 c7 d4 b8 3d 53 4e 79 bd f9 c4 d9 3d de 7d 37 3d
       0.09024959 -0.06086571 0.10633273 0.04479777
0001d0 82 45 34 bd 24 b2 9a 3c da 66 50 bd c7 f6 c2 3d
       -0.0440116 0.018883772 -0.050879337 0.09519725
0001e0 18 17 14 3c 78 09 04 3c 18 ec d9 bc 44 69 b1 3c
       0.009038709 0.008058898 -0.026601836 0.02165664
0001f0 7a 10 8f bd a5 a0 da 3d c0 06 03 bd b8 20 b5 bc
       -0.069855645 0.10675172 -0.03198886 -0.022110328
000200 e2 9c 53 3d 48 48 f3 bc b9 5b c9 bd 17 74 d3 3d
       0.051663287 -0.029697552 -0.09831948 0.10324877
000210 74 d1 b5 3c 09 df d5 3d e2 75 a0 bd ee bd 31 3d
       0.022194602 0.10442931 -0.07834984 0.04339402
000220 65 f2 d3 bd 37 1d d8 3d e1 f3 aa 3d dc c9 97 3c
       -0.103489675 0.10552447 0.083472975 0.018528871
000230 c0 c0 6d 3c 44 a0 88 bd bd 5a 55 bd 25 46 a7 bd
       0.014511287 -0.06671193 -0.052088488 -0.08167676
000240 5b a9 c5 3d e4 d2 57 bd 8d d9 73 bd d6 a6 55 3d
       0.096514426 -0.052691355 -0.059533644 0.05216106
000250 d7 1b 95 3d a2 5f 40 bd ef 77 ad 3d 6d dd db bd
       0.07280701 -0.046966203 0.08470141 -0.10735593
000260 0d 64 d4 3d bc 74 9f bc 2f e6 d7 3d 66 08 0a 3d
       0.10370646 -0.019464843 0.10541951 0.033699416
000270 38 2e 2f 3c 84 95 af bd df 1c aa bd 54 81 c8 bc
       0.010692172 -0.0857344 -0.08306288 -0.024475731
000280 b2 54 46 3d 76 95 21 3d c0 0c 6a bb 0d eb a5 3d
       0.048420615 0.039449178 -0.0035713166 0.08101473
000290 80 b1 09 3c 20 93 1c bb 7c 3d 2e bd 52 41 44 3d
       0.008404136 -0.0023891404 -0.042539105 0.047913857
0002a0 f1 69 d3 3d 24 89 f4 3c 51 42 c7 3d 74 9d 39 bd
       0.10322941 0.02985055 0.09729446 -0.045316175
0002b0 6c f6 1d bd 23 79 cd 3d 8d 48 b0 3d 8d a5 ca 3d
       -0.038565084 0.100328706 0.08607588 0.098948576
0002c0 17 e0 a5 3d 34 2c c6 bc fe 1a c2 bd 07 b6 6e bd
       0.08099382 -0.024191 -0.094778046 -0.058279064
0002d0 98 a6 52 3c aa c8 31 3d 95 ff d2 3d 58 25 7a bc
       0.012857102 0.04340426 0.10302655 -0.0152676925
0002e0 89 2d 5b bd f4 bc c0 bd 48 15 b5 bc b7 be cb 3d
       -0.053510223 -0.0941104 -0.022104874 0.09948485
0002f0 fe 8b cb bd 1f c2 77 bd 90 eb 94 bc 30 a7 d7 3b
       -0.09938811 -0.060487863 -0.018178731 0.0065812096
000300 a6 d2 54 3d 05 3c aa 3d 5e 07 4d 3d 53 00 b3 3d
       0.051958703 0.08312229 0.050055854 0.08740296
000310 81 90 b0 3d 42 11 2d 3d 84 3c 9a bc dd b9 d2 bd
       0.08621312 0.042252786 -0.018827684 -0.10289357
000320 08 ae c7 bd ca 75 53 bd 1e 6d 00 3d 3b 03 6c bd
       -0.09749991 -0.051626004 0.031354062 -0.05762027
000330 76 99 1e 3d af 9d a4 3d 02 52 36 bd 1e 5c af bd
       0.03872057 0.08037888 -0.044511802 -0.08562492
000340 1e 6b 54 3d 2e 0c 90 bd 1c c3 d0 bd 8c 37 fa bc
       0.051859967 -0.07033573 -0.10193464 -0.030544065
000350 61 1b d6 3d 01 fc c6 3d 23 58 82 3d 1d 00 cd 3d
       0.10454441 0.09716035 0.06364467 0.10009787
000360 36 6e 5d 3d 72 1a bf bd b0 62 10 bd 22 a0 66 3d
       0.054060183 -0.09331216 -0.035250366 0.05630506
000370 30 62 ab bd 7a 8c 79 bd 3a bf 07 bd 1a e2 9e bd
       -0.08368337 -0.060924985 -0.033141352 -0.07757969
000380 41 57 8f 3d 59 3e a4 bd c6 d4 cf bd 04 91 95 bd
       0.06999064 -0.08019704 -0.10148005 -0.0730305
000390 20 18 72 3b 92 32 36 3d 97 59 d4 bd e8 d9 6f bd
       0.003694065 0.04448182 -0.103686504 -0.05855742
0003a0 e8 4e 57 bd 9a 3a 26 3d fc 61 ca 3c bc da 18 bd
       -0.052565485 0.04058323 0.024704926 -0.037317976
0003b0 a7 69 d4 3d e4 37 fa 3c 98 59 8a bd 38 5b 6b bc
       0.10371714 0.030544229 -0.0675537 -0.01436501
0003c0 db a4 a2 3d 15 b0 88 3d 0d 19 a9 bd 78 2b 05 bd
       0.079416 0.0667421 -0.08256731 -0.03251216
0003d0 08 75 5c bc 29 c5 c5 3d 3f e9 70 bd a7 a4 b1 3d
       -0.013455637 0.09656746 -0.05881619 0.08673983
0003e0 f2 d0 4c bd 7b 90 c4 3d 24 e6 dd bd a4 8c 9e 3c
       -0.050003953 0.0959787 -0.108349115 0.019354172
0003f0 9c 97 84 bc 6c b4 09 bd f0 65 80 3b 3c 08 ef 3c
       -0.016185574 -0.03361933 0.003918402 0.029178731

fc3.bias f4 [10]
000000 00 94 1e bc e3 fa b5 3d 1f 25 c1 bd ce 57 29 3d
       -0.009678841 0.088857435 -0.094309084 0.041343503
000010 3b 9a c4 3d 60 e3 b3 bb 8f b3 60 bd fc 8c cd bc
       0.095997296 -0.0054897517 -0.05485874 -0.02509164
000020 3e 7f 0f 3d b2 b5 30 3d
       0.035033457 0.04314203
