tutorial/cifar_net.pth (torch_old, 249602 bytes, 10 tensors)

conv1.weight f4 [6, 3, 5, 5]
000000 fb e2 04 3f e0 11 58 3e 8f c3 cd 3d dc f1 97 be
       0.51908845 0.21100569 0.100470655 -0.29676712
000010 68 99 d5 3e b1 3d 28 3f 6e a0 98 3e ea 4d 16 3f
       0.41718602 0.65719134 0.29809898 0.5871264
000020 7d 55 65 3e d8 2d 94 3e 92 b8 48 3e a1 bc 92 3e
       0.22395892 0.28941226 0.19601658 0.28659537
000030 cd d7 24 3f a9 b9 10 3f 16 7d 1c be 04 18 db be
       0.64391786 0.56533295 -0.15282091 -0.4279176
000040 08 6f 02 3e 9e 83 17 3f 0f e3 05 3f b9 7b c3 be
       0.12737668 0.59185207 0.5229959 -0.3818033
000050 8e 39 be 3d 5d d4 48 3e 91 b8 6f 3e 8b 13 da 3c
       0.092883214 0.1961226 0.2341025 0.026620647
000060 37 98 fb be 59 b9 33 3e f3 c9 40 be 05 2a 3f bf
       -0.49139568 0.17551173 -0.18827038 -0.7467349
000070 e4 36 89 bf 6e 4b e3 be d8 bf 0a 3f a8 c4 9f 3e
       -1.0719876 -0.44393486 0.5419898 0.31204724
000080 41 fb 34 3e 2c 50 bc bd 75 c5 be be 0d c4 db 3e
       0.17673971 -0.09194979 -0.37260023 0.42923012
000090 f9 5c de 3e f0 f3 05 3f 6f ad 81 3e a5 26 f5 be
       0.43430308 0.52325344 0.25327632 -0.47881046
0000a0 8a 4b da bc 10 7a bf 3e cf dd 0a 3f fe 8f 1e 3e
       -0.026647348 0.37397814 0.54244703 0.15484616
0000b0 65 f3 1d bf 59 95 11 3f 77 57 25 3f 5f 67 da 3e
       -0.61699516 0.5686851 0.64586586 0.4265699
0000c0 cb 5c 23 3e 57 a6 8b be e6 9e 59 be 0d e3 30 bf
       0.15953366 -0.27275345 -0.21252021 -0.6909645
0000d0 fd f9 72 bf 33 c8 91 bf e3 28 e3 be a9 be 2a bd
       -0.949127 -1.1389221 -0.44367132 -0.041685734
0000e0 35 ca 91 be 7d 9a 9c be c9 d3 b7 be b8 77 84 be
       -0.28474584 -0.30586615 -0.35903767 -0.25872588
0000f0 ef 5f 0c be 3b df 69 be 56 ef a7 3d 85 f3 15 3d
       -0.13708471 -0.22839062 0.081999466 0.03660919
000100 cf 82 26 bf 32 7b 04 bf d4 45 6a be 45 e9 84 3d
       -0.6504335 -0.5175048 -0.228782 0.06489805
000110 29 b5 d5 bd 9c 57 3a bf 86 2b 5f bc af 53 73 3d
       -0.10434944 -0.7278993 -0.013621217 0.05940598
000120 6e 9f ad bd 32 ad 41 be 2c bc 12 bf 25 61 71 3f
       -0.084776744 -0.18913725 -0.5731838 0.94288856
000130 35 3d d9 3e 7d f5 79 3e 4d 3f e7 3e ea 37 c6 3d
       0.4242951 0.24410053 0.45165482 0.096786335
000140 a6 12 f9 3e 8f ce 99 3e 75 7c 10 3f d6 a3 e4 3e
       0.4864704 0.30040404 0.56439906 0.44656247
000150 98 39 1a be 5f ce 24 3f 45 7b 77 3f 22 79 8e 3f
       -0.15061033 0.643774 0.9667247 1.1130717
000160 d4 dc 21 3f 2e 82 a8 3e 17 f1 76 be 80 eb 0c bf
       0.6322758 0.3291182 -0.24115406 -0.55046844
000170 e9 e7 06 bf eb 97 ea be 8a 91 46 bd fe e3 2d bf
       -0.52697617 -0.4581903 -0.04847864 -0.67926013
000180 e4 c7 a4 bf c3 fe 9a bf 26 93 84 bf 6c 55 ed be
       -1.2873502 -1.2108997 -1.0357406 -0.46354234
000190 8c 0e 9f be a7 14 7e bf d3 fc 55 bf 3d 41 cb be
       -0.31065786 -0.9925026 -0.83588904 -0.3969821
0001a0 a5 16 72 bf 82 ae f2 be b5 7f 4d bf 38 ae f5 be
       -0.945658 -0.47398764 -0.8027299 -0.4798448
0001b0 e4 83 f7 be e2 c8 1b bf 78 53 b8 3e bc 77 32 3f
       -0.48342812 -0.608534 0.36001182 0.6971395
0001c0 cf e0 85 3f f9 56 10 3f 01 e4 ac 3e 81 26 1f 3d
       1.0459231 0.5638271 0.33767703 0.03885508
0001d0 54 90 13 3d 10 78 0c be 94 15 f1 3d 8e cc a9 3e
       0.036026314 -0.13717675 0.11771694 0.33163875
0001e0 3a 5e d4 3a ce 42 c1 be 85 ab c2 be 03 ba ad be
       0.0016202398 -0.3774628 -0.38021484 -0.33930978
0001f0 dc 69 dc 3d 99 9f f6 be 26 c2 86 bf 0e 28 6f bf
       0.107623786 -0.48168638 -1.0527999 -0.93420494
000200 2f 0a c4 be de 8d 52 bf 55 87 54 bf 04 5e 56 bf
       -0.3828902 -0.8224772 -0.83019 -0.83737206
000210 c7 b4 ff be c2 98 d6 be 89 4e 01 bf af e9 87 3e
       -0.4994261 -0.4191342 -0.5051046 0.26545474
000220 5c 8e 81 3f 38 bd a0 3f b9 61 86 3f 86 43 e7 3e
       1.012157 1.2557745 1.0498573 0.45168704
000230 2a 64 c5 3e ea 78 56 3e 5b 70 93 3e dd ee c2 3e
       0.38552982 0.20944563 0.28796658 0.38072863
000240 80 42 cc 3e d4 48 80 3e b6 94 06 be c0 62 7f be
       0.39894485 0.25055563 -0.13142666 -0.24940014
000250 77 3e 3f be e7 bc c5 3e 9d 89 90 3d e7 a9 84 3d
       -0.18676172 0.38620684 0.07057498 0.06477719
000260 c9 f2 20 3e e6 53 86 3e 06 3f aa 3e ac a8 1c 3f
       0.15717615 0.26235884 0.33251208 0.6119487
000270 28 8c 37 3f b1 5a 58 3f ab a4 05 3f 3c 2c 17 3f
       0.71698236 0.84513384 0.5220439 0.5905187
000280 a1 d4 0c 3f 9a 01 41 3f 3d 3d 53 3f 45 f7 06 3f
       0.55011946 0.7539307 0.8251532 0.52721053
000290 7a 35 ad 3e 14 ca 45 3d c5 92 9f 3e 99 35 13 3f
       0.33829862 0.04828842 0.31166664 0.5750366
0002a0 0e 33 23 3e 2d 48 ab bd 65 5e 81 be bf c1 0a be
       0.15937445 -0.08363376 -0.2526733 -0.13550471
0002b0 28 29 51 bd aa 8f 5a be 52 e8 de be a4 e1 a4 be
       -0.05106464 -0.21343866 -0.4353662 -0.322034
0002c0 34 a3 8d be 10 0d d0 be 06 c9 d5 be 4f 28 a8 bd
       -0.27663577 -0.40634966 -0.4175493 -0.08210813
0002d0 5f a2 ea be cf 66 dd be 42 02 e5 be 93 b5 22 bf
       -0.45827004 -0.432425 -0.44728285 -0.6355831
0002e0 19 ef 9f be 2a a8 1c bf aa 16 1c bf 80 04 07 bf
       -0.31237105 -0.611941 -0.6097208 -0.5274124
0002f0 51 b3 18 bf 1a f4 61 be 42 2f b4 be 15 b1 72 be
       -0.59648615 -0.22065774 -0.35192305 -0.23700364
000300 17 cd 7f be 76 b3 44 be f7 8e 0c be 7f eb b8 be
       -0.2498058 -0.19209084 -0.13726412 -0.3611717
000310 54 65 a2 be cf 39 b0 3c 85 84 fb bd 20 04 ce bd
       -0.31717932 0.02151194 -0.122811355 -0.100593805
000320 62 a4 67 3e 34 bf c5 3d 05 fb 10 b8 72 2a e4 3d
       0.22621301 0.0965561 -3.4566056e-05 0.11140908
000330 42 38 fb 3e 68 2f 1a 3e 6c 55 12 be 6c 62 81 be
       0.4906636 0.15057147 -0.14290398 -0.25270402
000340 9a fa 78 bd 87 6e 49 3e ca ce 5e 3d 77 c8 c7 bd
       -0.060785867 0.19671069 0.05439643 -0.097550325
000350 83 06 27 be 82 98 b4 bd 1b 35 4f 3e b8 64 41 bb
       -0.16311078 -0.08818151 0.20235102 -0.0029509496
000360 66 f5 07 bd 28 6c 3c 3b 93 2a a9 3d f5 72 3e 3e
       -0.033193015 0.002875099 0.082600735 0.1859854
000370 39 5d 50 bd fe cf 10 3e b8 dc 42 3e 42 6f a2 3e
       -0.050870154 0.14141843 0.1902951 0.31725508
000380 2f 3a b0 3e 67 6f da bd 24 5d b7 bc 22 1e a2 3d
       0.3441939 -0.106657796 -0.02238328 0.07915904
000390 dc f1 c4 3a 3d 66 ad bd 10 db 7f 3b 4c 5b 77 3d
       0.0015025693 -0.08466766 0.0039040484 0.0603898
0003a0 ec cb 10 3d 85 9d 21 bd d2 09 a4 3d d1 57 f3 3c
       0.035350725 -0.039456863 0.080096856 0.02970496
0003b0 43 52 63 bd 83 9b 83 bd 9e b7 01 be cf 91 35 3d
       -0.055498373 -0.06426146 -0.126677 0.044328507
0003c0 a3 56 9b bd b7 1f af bd b6 d6 0c bc e1 ce 00 3d
       -0.07584884 -0.08550971 -0.008596113 0.031447295
0003d0 23 8c 8f 3c be 97 b3 bc 25 47 34 3d af e9 b8 3d
       0.017522877 -0.021922942 0.04401316 0.090289466
0003e0 c8 52 de bc 55 17 01 bd ec b6 e5 3c 87 be 83 3d
       -0.027139083 -0.03151639 0.028041326 0.064328246
0003f0 24 ae 96 bd 78 7c a8 bd dc 7e 13 3e af 76 b4 3d
       -0.073574334 -0.082268655 0.14403862 0.088116996

conv1.bias f4 [6]
000000 e4 41 86 c0 9a 8c 5b c0 8c ac 5d c0 f1 68 77 bf
       -4.1955433 -3.4304566 -3.4636564 -0.966445
000010 66 75 07 c0 d3 c5 71 c0
       -2.1165404 -3.7776992

conv2.weight f4 [16, 6, 5, 5]
000000 70 41 bd be 7a 4a 7d be b2 a0 cf 3d e4 42 9a 3e
       -0.36963987 -0.24735442 0.10138072 0.30129158
000010 e6 b7 cc 3e 4a 35 17 be 29 c4 a4 be 8e dd 4c be
       0.39984053 -0.14766422 -0.32180908 -0.20006391
000020 3e 08 90 bd 69 37 c8 bd 8a a0 c1 3d c5 86 af bd
       -0.07032822 -0.09776194 0.094544485 -0.08570627
000030 6c 2f a4 be 29 e8 f4 be 16 15 b8 be 4e e5 f4 bd
       -0.3206743 -0.47833374 -0.35953587 -0.11957799
000040 e2 a9 ae be 4b 31 98 be 67 33 04 bf f9 60 ff be
       -0.34113985 -0.29725108 -0.51640934 -0.49878672
000050 08 2e af be 3f 6e 6b be f9 76 0f be 5b 7b d4 be
       -0.34214807 -0.22991274 -0.14010228 -0.41500363
000060 29 54 ba be a8 e1 b3 be be 49 92 be 32 8b 58 3e
       -0.36392334 -0.351331 -0.28571886 0.21146849
000070 38 6f 24 3f 5f 0e 59 3f b5 61 5e be 7c dc 9b be
       0.64232206 0.84787554 -0.2171696 -0.30441654
000080 13 cb ea bd 7c 0a 14 be 4e 1d 95 be b6 fe a7 be
       -0.114645146 -0.14457124 -0.2912392 -0.32811517
000090 97 08 53 be 07 dd 2b be c2 aa 7b be c9 fb d0 be
       -0.20608746 -0.16783534 -0.24576858 -0.40817097
0000a0 c3 39 90 be e1 f9 85 bd 6f 33 99 3d df 34 25 3d
       -0.2816907 -0.06541801 0.07480513 0.040333625
0000b0 65 67 b6 be b3 e2 a6 be ea ba b8 be bf d4 85 bd
       -0.3562576 -0.32594833 -0.36080104 -0.06534719
0000c0 f2 f4 65 bc 60 10 38 bd 1b 29 d7 3c 25 ff 55 3c
       -0.01403545 -0.04493749 0.026264718 0.0130613195
0000d0 bd dc a5 3d ca b6 9b 3d 0f a7 dc 3d 8d d6 55 bd
       0.08098743 0.076032236 0.107740514 -0.052206565
0000e0 f7 0f 08 3d 63 4e 05 bd d2 5d 73 bd 72 b2 7b bd
       0.03321835 -0.03254546 -0.059415646 -0.061449476
0000f0 33 9f 77 bd 0b 10 68 bd ca b9 30 3c 65 c3 00 be
       -0.06045456 -0.056655925 0.010786483 -0.12574537
000100 7a d3 a2 bd a5 a6 cf bd e6 37 9d bc 0b 51 cb 3c
       -0.07950492 -0.10139207 -0.019191694 0.024818918
000110 74 91 1f bd c1 21 08 be 32 67 ab bd 52 db ee 3c
       -0.038957074 -0.13294126 -0.08369292 0.029157314
000120 d5 62 76 3c 84 86 4f bd 26 49 06 bd 57 6c 3d bd
       0.015038212 -0.050665393 -0.032784604 -0.0462459
000130 be 9e 5c 3d f6 9c 4c 3d fa 21 44 3d 06 20 27 bd
       0.053862326 0.049954377 0.047883965 -0.040802024
000140 43 b3 c8 bd 4f 87 f0 bc 96 fe 74 3c 70 4a 6d bd
       -0.097998165 -0.029361395 0.014953276 -0.057932317
000150 19 49 ae bc 84 54 45 bd 34 32 de bd 8b 13 d8 bc
       -0.02127509 -0.048176304 -0.10849419 -0.026376506
000160 f0 d7 df bc f0 5e ee bc ac 31 cb bc e8 81 1e 3c
       -0.027324647 -0.029098004 -0.024803959 0.009674527
000170 5b 66 07 bd 2f d2 c8 bd 46 d1 5b 3d 66 45 b2 bd
       -0.0330566 -0.09805714 0.053666376 -0.08704643
000180 a5 e3 39 3d 09 e3 89 bd 3f 37 56 3c d7 bf 8d 3c
       0.045383114 -0.06732757 0.013074695 0.01730339
000190 27 5e 1e be 4e f9 31 be e2 45 8e be 19 ab 53 bd
       -0.15465604 -0.17380258 -0.2778769 -0.051676843
0001a0 0d 48 d5 be 7b 46 3b be 76 35 ad be 46 95 87 be
       -0.41656533 -0.18288605 -0.3382985 -0.26481074
0001b0 ad 30 dc 3e 93 98 8a be 3e ed de be 2c ac 73 be
       0.43005887 -0.2706953 -0.43540376 -0.23796147
0001c0 35 c3 58 be 0c 23 28 3e 28 ea 85 bd 75 5d 02 bf
       -0.21168216 0.1641962 -0.065388024 -0.50923854
0001d0 2c 36 de be a6 d3 9e be 40 b3 e9 be 87 75 9f be
       -0.43400705 -0.3102085 -0.4564457 -0.31144354
0001e0 b3 6e fd be 86 bd 91 bd 82 74 ae be d6 e7 99 be
       -0.4949852 -0.07116227 -0.34073263 -0.3005969
0001f0 e5 8c cc be 00 d9 ca bd 2b 79 b5 bc 84 b7 5a be
       -0.39951244 -0.09904671 -0.022152504 -0.21359068
000200 6c 8d 45 be 0a 78 75 be bf 24 62 bf 89 a6 c6 be
       -0.1929223 -0.23971573 -0.8833732 -0.3879893
000210 20 b9 ae bd 49 d4 9b 3d 22 73 5d 3e 23 65 de be
       -0.085314035 0.076088496 0.21625951 -0.43436536
000220 59 69 b9 be 1f 0e af bd b4 f6 53 be 26 24 7a bc
       -0.36213186 -0.08547615 -0.20699579 -0.0152674075
000230 da 20 7a be 33 b3 76 be d9 4c be bd 61 f4 37 bd
       -0.24426594 -0.24091797 -0.09292001 -0.044910792
000240 13 68 08 be de 22 4a be c3 31 56 be d7 7f d8 bd
       -0.13320951 -0.19739863 -0.2091742 -0.105712585
000250 9e 00 49 be af 3d 6d be 2b 48 d0 be 73 51 93 be
       -0.19629142 -0.23168062 -0.4068006 -0.28773078
000260 0c ae 50 be 8c e8 92 be 9d 57 97 be 14 7d 5d be
       -0.20378894 -0.28693044 -0.2955903 -0.21629745
000270 ca 0c f9 bd 63 dc 18 bd be b7 76 be e0 79 c6 bd
       -0.121606424 -0.037319552 -0.2409353 -0.096912146
000280 aa de e0 bc 50 05 6e be 10 30 3d be 5b 60 2d be
       -0.027449924 -0.23244214 -0.18475366 -0.16931288
000290 bd f2 c5 bc f6 9f b0 b9 59 34 75 be 71 f2 16 be
       -0.024163598 -0.00033688516 -0.2394575 -0.14740922
0002a0 29 8c 80 be 2e e4 14 be 11 b9 db 3c 30 a8 82 3d
       -0.25106934 -0.14540169 0.026821645 0.063797355
0002b0 99 64 83 be f9 40 6f be cd 13 6d bd ae ca e6 3e
       -0.25662687 -0.23364629 -0.05788021 0.45076507
0002c0 45 cc 3b 3e 6a 87 cf bd bc a8 8c 3b 2c 7d 67 be
       0.18339641 -0.1013325 0.0042925756 -0.22606343
0002d0 15 e7 82 be df a7 86 be 8c d8 a6 bd b0 ef 9a bd
       -0.25566927 -0.2629995 -0.08146772 -0.07565248
0002e0 c0 f8 ac 3b 09 fb 1e 3e 1d 7b 99 3c 7c 96 bd 3d
       0.0052786767 0.1552545 0.018735463 0.09257218
0002f0 d3 4c aa 3d 39 28 10 3e 56 2a e3 3e e6 a1 07 3f
       0.08315434 0.14077844 0.44368237 0.5298141
000300 89 b3 83 3d d1 d6 55 3c cb 3b 0b be 45 df 94 3c
       0.06430728 0.0130517045 -0.13597028 0.01817287
000310 30 2f 56 3e ff 9c 22 3d b8 6e a0 bd bc 93 06 3e
       0.20916438 0.039700504 -0.07833618 0.13142294
000320 fb 0d 09 be 8c e4 f5 bd ef 10 fa bd 26 f9 fc 3c
       -0.1338424 -0.120064825 -0.12210261 0.030880522
000330 8f bd 82 bd e8 4f 25 bc 5e d0 86 3d ad 09 7e 3d
       -0.06383812 -0.010089852 0.06582712 0.062020946
000340 ce 18 bd bd ff ee cf bc 56 d8 ea bc b4 3e 9f bd
       -0.09233247 -0.025382517 -0.02866761 -0.077756315
000350 75 30 a0 bd 82 c0 bf bd bc 42 57 be 67 1d ac 3d
       -0.078217424 -0.0936289 -0.21021551 0.084040456
000360 74 ab d2 3d cb 71 a6 bd 4f 7a 00 be 44 9d d9 bd
       0.10286608 -0.08127173 -0.12546657 -0.10625699
000370 9d 8d 71 3d 9a fb 20 bc 3e f7 55 3d cd d8 03 be
       0.058972944 -0.0098256115 0.05223774 -0.12875672
000380 f6 75 bb bd 30 43 fd 3c f1 ba 1e 3b da 1d 35 bd
       -0.09153359 0.030915827 0.0024220312 -0.04421792
000390 80 b5 e8 3c af f5 51 bd 1e 01 e5 bc 44 c3 cd bc
       0.028406858 -0.051259693 -0.027954634 -0.025117524
0003a0 d7 1c 42 3d ae b3 24 3c 23 61 9a bd 94 ab 74 bd
       0.047390785 0.010052605 -0.075380586 -0.059733942
0003b0 0c f1 3e bd 3e 7a d8 bd 36 51 c7 3c b9 7e 19 3d
       -0.0466166 -0.10570191 0.024330717 0.037474368
0003c0 a5 40 80 bd 90 b1 da bc f2 01 7c bb 0a 24 e0 3b
       -0.0626233 -0.026695997 -0.0038453308 0.0068402337
0003d0 5c 29 07 3b 82 21 42 3d 64 05 91 bd 04 3f d6 3a
       0.0020624017 0.047395237 -0.07081106 0.0016345684
0003e0 f7 f7 1f 3c dd 42 f9 bc 27 c2 8b bd 11 33 1f bf
       0.009763709 -0.03042739 -0.06824141 -0.62187296
0003f0 51 d0 2e bf 91 89 2a bf cc 04 b5 be 58 53 e3 3e
       -0.68286616 -0.6661616 -0.35355222 0.44399524

conv2.bias f4 [16]
000000 3c 03 db be 2a 63 e7 bd fb 64 07 c0 44 74 6d be
       -0.42775905 -0.11298211 -2.1155384 -0.23188883
000010 bf 45 85 bd 2a 56 15 be 45 56 aa be 4c 0a 7a bf
       -0.06507444 -0.1458365 -0.33268943 -0.9767196
000020 cc b3 b8 3f 47 39 31 be 25 e3 dc bf 62 ad 51 bf
       1.442987 -0.17307006 -1.7256819 -0.81905186
000030 48 f8 2a be 30 f9 c6 be 1d be bf 3e 44 0d 5f 3f
       -0.16696274 -0.3886199 0.37449732 0.87129617

fc1.weight f4 [120, 400]
000000 83 f8 cd bc 67 fe 86 bd 9d 91 15 bd 9a 7d 99 bb
       -0.025142914 -0.06591492 -0.03651582 -0.0046841623
000010 85 8c 7b bd 5a 19 2e 3d 27 52 8b 3c ec c4 26 3c
       -0.061413307 0.042504646 0.017006947 0.010178786
000020 bf 4b ac bb c2 ec 6c bd 62 45 4c bc d6 b3 45 bd
       -0.005258053 -0.057842977 -0.012467714 -0.048267208
000030 f1 eb ef bc 74 22 cc 3c 66 dd 9f bb c0 fc 8e 3c
       -0.02928731 0.024918772 -0.0048786877 0.017454505
000040 44 99 86 3a 91 dd 11 bd 52 49 6b bc b7 f0 f1 bb
       0.0010269065 -0.035611693 -0.014360743 -0.007383432
000050 6b 80 5f bb 58 f2 22 bd fb 30 0e 3b b3 38 9f 3b
       -0.0034103643 -0.0397819 0.0021696675 0.004859054
000060 d3 92 4b 3d 26 69 35 bd 62 47 17 bc 2f f2 a8 bc
       0.04970057 -0.04428973 -0.009233328 -0.020623295
000070 54 f1 b8 bb cc 0f eb bc b7 b9 23 bd 5a 7d 0b bc
       -0.005644003 -0.028694056 -0.039972033 -0.008513773
000080 e4 ae e4 3c c1 c7 db bc 57 07 87 bd 3b a5 22 bd
       0.027915426 -0.026828649 -0.06593197 -0.039708357
000090 80 d7 6e bc 06 12 0a bd ab 34 15 bd 9a 24 e0 bb
       -0.014577746 -0.033708595 -0.03642718 -0.0068403007
0000a0 45 0f 7f 3b b8 a0 3b bc 90 44 aa bc 3c a2 76 bd
       0.0038919013 -0.011451893 -0.020784646 -0.060213313
0000b0 44 60 df b8 64 a8 3b bd b8 43 2f bd 8d 2a 88 bd
       -0.000106513995 -0.045814887 -0.04278919 -0.06648741
0000c0 97 c5 b4 bb 7f be 6d bd b7 c3 ec bd b4 80 d4 bd
       -0.0055167186 -0.058043 -0.11560767 -0.10376111
0000d0 f3 44 33 be 1c 00 26 bd cb 98 d8 3d 48 06 45 be
       -0.17506771 -0.040527448 0.10576018 -0.19240677
0000e0 55 98 ed bc ec 55 41 be 29 9f 19 be 1b 21 14 3c
       -0.029003302 -0.18880433 -0.15002121 0.009041096
0000f0 81 93 0a 3e 24 fb 41 be 01 50 f8 bd bb 6b bd 3b
       0.13532831 -0.18943459 -0.121246345 0.0057806647
000100 41 f0 a9 bd e6 2d 42 3c 85 49 9e bd c5 45 4f bd
       -0.08297778 0.011851763 -0.077288665 -0.050603647
000110 68 32 f7 bd a9 54 df 3b 1f 7a 97 bd 23 05 b5 bd
       -0.12070161 0.006815512 -0.073963396 -0.088388704
000120 1f 6b 84 bd 41 c5 8d 3d 65 10 8b bd 6c 01 cc bd
       -0.06465744 0.06922389 -0.067902364 -0.09961209
000130 2f 64 fa 3c 6c ec 9b 3d e7 47 b8 bd 34 bb a8 bd
       0.03056535 0.07613453 -0.08998089 -0.08238831
000140 8d bd f5 bd b1 41 f6 3c 35 f3 a7 3d 1e cc 99 bd
       -0.119990446 0.030060621 0.08200685 -0.075096354
000150 b5 ce a8 3d 1d 57 6d bd f5 8d 87 bc 92 97 f3 3d
       0.08242551 -0.057944406 -0.016547183 0.11894144
000160 ef 21 17 bd bd d3 40 3d 4a bd f0 bd 71 3a 04 3e
       -0.036897596 0.04707693 -0.11754854 0.12912919
000170 16 e8 bb 3d 38 38 9d 3d 84 5d 78 bd 91 5d 8a be
       0.09175126 0.076767385 -0.06063606 -0.2702451
000180 88 91 65 3d 64 8c 6b 3d df f8 30 bc 48 7b 88 3c
       0.056046993 0.057506934 -0.010801523 0.016660348
000190 a5 1b 85 bd e6 99 ca bd 5a 69 de bd 3b c7 2a be
       -0.064994134 -0.09892635 -0.10859938 -0.16677563
0001a0 1d e5 3d be 2d 80 3d 3c 66 18 2a bd 74 5d 65 bd
       -0.18544431 0.011566204 -0.041527174 -0.055997327
0001b0 19 8f ea bd 3a 01 1d be 05 44 10 bd cc 83 59 bd
       -0.11453075 -0.15332499 -0.03522112 -0.053104207
0001c0 fe 54 ee bd c7 dd 15 be ea 25 19 be 01 f2 e5 bc
       -0.11637305 -0.14635383 -0.1495587 -0.028069498
0001d0 0c 82 a2 3b ef 7b 30 bd 7c 31 fc bd df 3a 11 be
       0.0049593505 -0.043086942 -0.12314126 -0.14182614
0001e0 df 46 cc 3c c3 26 4a 3c c8 ee 2a bd 4b 50 41 be
       0.024936138 0.012338343 -0.041731626 -0.18878286
0001f0 75 62 f4 bd 0a 67 d9 bb 68 47 df 3c 5a 31 61 bb
       -0.11932842 -0.0066345977 0.027255729 -0.0034361691
000200 3e f4 ab 3b 84 46 0a bd 53 d2 bd bc b7 77 73 bd
       0.005247622 -0.033758655 -0.02317158 -0.05944034
000210 76 3e 23 bd a9 d8 cc bb 89 62 0b bd 73 9c 8c bd
       -0.03985449 -0.006251414 -0.034029517 -0.06865778
000220 19 63 02 bd c9 27 dc bc 92 e1 66 bd d4 5f 62 bd
       -0.03183279 -0.02687444 -0.056367464 -0.05526717
000230 b4 61 b1 bb 62 56 3d 3d 37 04 90 bd 92 ab 32 bd
       -0.0054132584 0.04622496 -0.07032054 -0.043620653
000240 50 60 c1 ba 6d 4e 2b bd 03 be f0 3c 9c 2d 07 3c
       -0.0014753435 -0.04182284 0.02938748 0.00825062
000250 ac 30 0c bd 42 01 47 3d 24 b0 b8 bb a1 ac 22 bc
       -0.034226105 0.048585184 -0.005636232 -0.009928853
000260 b6 ac 87 bd b8 e4 04 bd 83 f8 7a 3d e9 b7 1b bc
       -0.06624739 -0.032444686 0.061272155 -0.009504297
000270 5b c9 1f bd 56 e4 40 bd 9d 5f ad bc fc 6b 12 bd
       -0.039010387 -0.047092758 -0.021163756 -0.035747513
000280 e6 4c 95 3d 8d 80 7c 3d cb 7d 93 3d 23 42 3a 3d
       0.07290058 0.061646033 0.072017275 0.04547323
000290 7a 57 e1 3d 2d 3f 73 3d fa 8b 2e bc 42 40 b1 bc
       0.11003013 0.05938642 -0.01065349 -0.021637086
0002a0 13 e1 70 3d 1f d6 cb 3c 9d fe 16 3d 45 ac 20 bb
       0.058808398 0.024882374 0.036863912 -0.0024516743
0002b0 d0 f8 8d bc 73 82 12 bd cc 08 e4 3c bc 5f 92 bd
       -0.017330557 -0.035768937 0.027836226 -0.07147166
0002c0 94 8b ee 3c a4 40 92 bd 2a 70 9f bd a8 62 3c bd
       0.02911929 -0.071412355 -0.077850655 -0.045992523
0002d0 ac 82 13 3d 67 7e 0e bd 73 94 79 bd 07 1c 08 bd
       0.03601329 -0.034788515 -0.060932588 -0.033229854
0002e0 c6 df 1d bd 1d ca 1f 3d 78 85 a9 bc 23 0d 30 bd
       -0.038543485 0.03901111 -0.020693526 -0.04298128
0002f0 32 dc db bd 9a ea 60 bd 9b 41 1e bb 21 11 3d bd
       -0.10735358 -0.054911233 -0.002414799 -0.046158914
000300 80 1d 44 bd a2 f5 a8 bd 42 e4 85 bd f5 67 aa bc
       -0.047879696 -0.08249976 -0.06537677 -0.020801524
000310 d7 aa 8f 3c e7 98 b8 bd d4 eb 3d be 92 c7 95 bd
       0.017537517 -0.09013539 -0.18546993 -0.07313456
000320 c5 0e ab 3c 16 5b 4e bd d9 75 d8 bc b4 f9 68 bc
       0.020881066 -0.050379835 -0.026423382 -0.01421969
000330 4b f6 6b 3d ad 48 5f 3e 74 e7 ae 3c 50 c7 09 bd
       0.05760793 0.21805067 0.0213506 -0.033637345
000340 a6 42 4c be eb a3 18 be 1c 96 35 3e 75 2e c2 bd
       -0.199473 -0.1490628 0.17733043 -0.09481517
000350 bd 99 e2 bc 07 25 c8 bc 07 02 be bd 81 cb fc 3d
       -0.027661199 -0.024431719 -0.092777304 0.12343503
000360 06 6f 9f bd 30 93 26 3c 32 fe 90 3d 55 c1 37 bc
       -0.07784848 0.010166928 0.07079734 -0.011215528
000370 91 ce ba 3d 11 bb d8 bc 52 49 a1 3d 8f 91 7d 3d
       0.09121431 -0.026456388 0.07875313 0.061906394
000380 e5 3c ef 3d 56 58 d5 bb e6 ec 83 3c 11 4b 9b 3c
       0.116815366 -0.0065107746 0.016104173 0.018956693
000390 9e 68 3a 3d 1f c4 55 bc da 96 86 3a 9b f2 e3 3c
       0.045509927 -0.013047247 0.0010268346 0.027825644
0003a0 c3 aa dc bc f9 e0 c3 bc 7d 1e 33 bd d8 e4 47 3d
       -0.026936894 -0.023910986 -0.043730248 0.048802227
0003b0 ed 9f 39 3c cb c4 27 3d e9 b0 61 b9 2b 3a 68 bc
       0.011329633 0.04095916 -0.00021523576 -0.014174025
0003c0 7f 4d 42 3c 7a 6a b2 3c 5a 73 14 3d 85 72 24 bd
       0.011859297 0.021779288 0.03624282 -0.040148277
0003d0 8c 92 42 3c 40 eb aa 3c 16 db 6f 3d 8f 5d ab 3c
       0.01187576 0.020864129 0.058558546 0.020918636
0003e0 69 bc 27 3b 40 eb 50 3d c8 27 5b bd 6e a5 95 bd
       0.002559448 0.051005602 -0.053504735 -0.07306944
0003f0 02 8b aa bd 57 a2 76 bd 79 86 9f ba c0 4e 9b 3c
       -0.08327295 -0.060213413 -0.0012170813 0.01895845

fc1.bias f4 [120]
000000 2f b3 2c bf 22 1e 2f be 47 be 01 be e3 34 ae be
       -0.6746091 -0.17101339 -0.12670241 -0.34024724
000010 f3 a8 0d bd eb cf 8b 3e de a6 3a 3c f9 9f 93 3e
       -0.03458495 0.27307066 0.011392323 0.28832987
000020 19 8d 5e be 9f 15 94 3e 08 f2 bc bf 21 f8 e4 be
       -0.21733512 0.28922746 -1.4761362 -0.44720557
000030 5c 86 5a be 88 c4 c5 3d e5 89 0f bf 89 88 56 bf
       -0.21340317 0.09656626 -0.56069785 -0.83802086
000040 90 6b 39 3e 5e 25 27 be 91 3e a6 3e 10 6c be be
       0.18107438 -0.16322848 0.3246961 -0.3719182
000050 b3 e9 e4 3c 38 45 63 bf dc 3f dc 3b c3 f2 14 bf
       0.027943468 -0.88777494 0.00672148 -0.58182925
000060 9b 88 31 bf 9c 85 c8 3d 3a ab 08 bf 82 4c c0 3d
       -0.6934907 0.09791109 -0.5338627 0.09389593
000070 2f f1 a5 bd 68 53 2b be 34 d3 b2 bf 2f 76 dd 3d
       -0.08102643 -0.16731036 -1.3970704 0.10813557
000080 96 6b 88 3d a4 24 25 3e a4 2a 49 bf f8 5a 87 be
       0.066611454 0.16127259 -0.7858069 -0.2643659
000090 8b 2e c7 bd fe 19 b7 bc de b8 84 be 52 9b 44 bd
       -0.09725674 -0.022351261 -0.25922292 -0.047999687
0000a0 9c 42 03 be 4c c9 09 bf 50 db 14 3d 3b d0 2f 3e
       -0.12818378 -0.5382278 0.036341965 0.17169277
0000b0 00 51 97 be cf 35 71 bf 0e ae 1c bd 18 2e 50 be
       -0.29553986 -0.9422273 -0.03825193 -0.20330083
0000c0 83 b6 29 bf 57 93 c1 be d6 ac 85 be 82 6c 97 3e
       -0.66294116 -0.37807724 -0.26108426 0.29574972
0000d0 69 c5 3a be 47 48 9c bf 38 7b 05 3e 40 ea f1 bc
       -0.18239368 -1.2209557 0.13035285 -0.029530644
0000e0 45 b1 88 3e 79 0f 2a 3e af 09 bc bc f6 0e 6d bd
       0.26697746 0.16607465 -0.022953836 -0.057875596
0000f0 a1 55 0f bf c9 1c 7e 3d 45 29 cd be 0e df 10 bd
       -0.55990034 0.06203917 -0.4007055 -0.03536897
000100 79 5f a4 bf 96 7b 1c 3e c4 c1 9f be 76 a1 dc be
       -1.2841636 0.1528152 -0.3120252 -0.43091935
000110 74 e2 f6 bb 04 a5 0c bf 44 a0 a6 bd 0a df 95 bc
       -0.0075343195 -0.54939294 -0.08136037 -0.01829483
000120 c0 a9 19 be bc b2 b6 bd b1 83 d3 be 4c 37 ba be
       -0.1500616 -0.089208096 -0.4131141 -0.36370313
000130 02 2b 37 bd ba 6f 23 bf c2 96 7e 3e 3e bf 6b bf
       -0.04471875 -0.63842356 0.24862197 -0.9208869
000140 45 dd 11 bd 85 17 60 be 4c 8b 69 3d e9 47 b1 3d
       -0.03561141 -0.21883972 0.05701761 0.08656294
000150 19 1b c4 bc ac 59 73 3d 16 b5 8e bd c2 8a b4 bc
       -0.023938702 0.05941169 -0.06968133 -0.022038821
000160 e6 95 2a be e3 6b 71 bd 66 7b 44 bf 46 c2 eb 3e
       -0.16658744 -0.05894078 -0.7675079 0.46046656
000170 42 37 f8 bd 8c 24 52 3e f1 3e 13 bf 17 bf 5b bd
       -0.121199146 0.20521754 -0.57517916 -0.053649034
000180 43 1b 53 bf 55 9a 03 3f 77 66 e1 bd 37 2a 0e bd
       -0.82463473 0.51407367 -0.11005872 -0.034708228
000190 da 77 52 3e 08 eb 7e 3e 4a 18 e8 be 51 3c af 3e
       0.20553532 0.24894345 -0.4533103 0.34225705
0001a0 ff 08 eb bd 5d 8f b5 bf 15 1a fb 3e 8d b0 47 be
       -0.11476325 -1.4184376 0.49043337 -0.19500943
0001b0 20 97 ee 3d 76 1e 61 3d d0 b1 38 3f 0b 14 ec be
       0.116499186 0.05496069 0.7214632 -0.46109042
0001c0 52 29 03 bf ce 41 9b 3d f1 49 8a be db 28 0a 3e
       -0.51234925 0.075809106 -0.27009538 0.13492148
0001d0 73 bc 22 3e bc 98 94 bf 16 09 55 3d bc e4 a2 3e
       0.158922 -1.1609111 0.05201062 0.31815135

fc2.weight f4 [84, 120]
000000 97 18 15 be 89 d7 52 3d 47 e0 cc bb 3d 4a a3 bc
       -0.14560162 0.05147508 -0.006252322 -0.01993286
000010 a3 3f 93 bd 59 e3 d6 bd 33 b4 8d bd 33 79 34 3c
       -0.07189872 -0.10492582 -0.06919136 0.011015224
000020 59 5b a0 3d d6 eb ff 3c ce 40 65 be 2b d6 47 be
       0.07829923 0.031240385 -0.22388002 -0.19515292
000030 3e 31 f9 bd ab 10 8c 3d 7d a3 ab bd bb ed 33 be
       -0.12167595 0.06839117 -0.08380792 -0.17571156
000040 57 90 93 bd da 7e 74 bd a5 f7 82 bd 16 b8 13 bd
       -0.07205265 -0.059691288 -0.06394891 -0.03606423
000050 49 fe b2 3d 9e 17 69 be 07 01 bf bd ce 31 c9 bc
       0.08739907 -0.22762915 -0.09326368 -0.024559882
000060 f0 82 e6 bd 13 7c c7 bc 33 f8 0c be b5 9d 24 bc
       -0.11255443 -0.024351155 -0.13766555 -0.010047366
000070 1f b6 34 3c 1d cf 99 bd 53 72 30 be 28 f3 c1 3d
       0.011029749 -0.07510207 -0.17231111 0.094702065
000080 26 38 db bd 65 c7 32 3d 70 17 a5 bd e2 45 b2 bd
       -0.10704069 0.04364719 -0.08061111 -0.08704735
000090 82 ba 8c bd c0 16 3c be a0 76 df 3b 08 1d d7 3d
       -0.06871511 -0.18368053 0.006819561 0.10503584
0000a0 31 d7 3b 3d 6d 5a 6e 3c 70 6c 25 bd 0c 54 e8 bd
       0.04585952 0.014547926 -0.040386617 -0.11344156
0000b0 1e c1 b8 bd ee d4 51 be f1 3e a1 bd 14 fe eb bc
       -0.09021209 -0.20491382 -0.07873333 -0.028807677
0000c0 4b 78 84 3c 1b 59 47 bd ac 82 88 bd 59 d6 44 bd
       0.016170641 -0.048668962 -0.06665549 -0.04805598
0000d0 1e 7a 43 3d 2b 5d 4f 3d 8f 52 8d bd a6 6f 85 bb
       0.047723882 0.05062596 -0.069005124 -0.0040721474
0000e0 64 68 d8 bb cb 19 e4 bb 28 1d bc 3c bc d1 b0 bd
       -0.006604241 -0.0069610826 0.022963122 -0.08633754
0000f0 c8 4e 3d bd 3b c3 d6 bc a7 ec cd bd 71 15 96 3d
       -0.04621771 -0.02621614 -0.100549035 0.073283084
000100 94 76 14 be 1b 2f 09 bd c2 0c 90 bd 7b 88 d3 bc
       -0.14498359 -0.03349219 -0.07033683 -0.025821915
000110 bd 30 96 bd b7 d5 2d bd 85 41 14 3b e8 5a 50 3d
       -0.07333515 -0.042440142 0.002262206 0.050867945
000120 81 97 f8 3c 9e bd f5 3c 81 d6 91 38 40 67 d3 bd
       0.03034568 0.029997643 6.954093e-05 -0.10322428
000130 08 35 52 3d ee 42 17 be 0d 95 00 be 9d 01 74 bd
       0.051320106 -0.14771625 -0.12556858 -0.05957185
000140 0f 71 99 3d f7 c9 10 3b d9 b8 63 bd 20 9e 29 be
       0.07492267 0.0022093037 -0.055596206 -0.16564226
000150 f8 64 d4 bc 45 bf 7c bd de 6e 2e 3d 35 2f 90 3d
       -0.025927052 -0.061705846 0.0425862 0.07040254
000160 51 03 0c 3c 69 3f 49 3d 65 e2 25 bd a7 d9 f1 bd
       0.008545713 0.04913274 -0.04049911 -0.11809092
000170 55 ce 7e 3d bc 44 3e bd 3e f4 ae bd be ea 4c 3c
       0.062208492 -0.04645227 -0.08542679 0.012507139
000180 53 aa 14 be 82 28 a8 bd 61 bc a8 3d d8 8b 22 bd
       -0.14518099 -0.08210851 0.082390554 -0.039684147
000190 7f fc 53 3d 65 5f 33 3e 53 14 b4 bd 1a 87 4a bd
       0.05175447 0.17516859 -0.08792939 -0.04944525
0001a0 50 07 8e 3d 64 3e 27 be b9 b8 c4 bc e1 a6 81 bc
       0.069349885 -0.16332394 -0.024013864 -0.015826644
0001b0 f5 63 b0 bd b0 46 24 3d f8 51 d3 bd 04 9a 45 be
       -0.08612815 0.040106475 -0.10318369 -0.19297034
0001c0 bb 90 0f be c5 e2 90 bb 99 c8 f9 bd 1c 74 c8 3c
       -0.14020054 -0.0044215643 -0.12196464 0.024469428
0001d0 72 5e ce 3b 27 bf 5d bd ce 79 d6 bd 4c b2 a7 bd
       0.00629788 -0.054137375 -0.10472451 -0.08188304
0001e0 25 49 ac bd e3 68 94 3d 94 b2 1b be f3 3b f4 bc
       -0.08412389 0.07246568 -0.15204841 -0.029813742
0001f0 14 27 be bd 30 30 16 be 15 50 f6 3d d0 2b 83 3c
       -0.09284797 -0.1466682 0.12026993 0.016012102
000200 c2 7a 35 bd cb e0 c6 bc 80 a5 92 be 99 54 e5 bd
       -0.044306524 -0.024277112 -0.2864189 -0.11197776
000210 34 d0 ff be f1 e0 8c 3d fc db 30 be 3c 3f 1f be
       -0.49963534 0.06878842 -0.17271417 -0.15551466
000220 9e 72 db bd 3e 5a 5f 3a 94 0d 96 bd 1e f3 c3 be
       -0.10715221 0.0008520222 -0.073268086 -0.3827142
000230 c1 c5 71 be 98 65 bd be 9e 74 10 bd a9 23 13 bf
       -0.23610593 -0.36991572 -0.035267465 -0.5747629
000240 a5 a7 f3 3d 85 84 13 be 11 59 a1 be 06 57 c5 3c
       0.1189721 -0.14406021 -0.31513265 0.024089348
000250 50 ee 02 3d bd dc f9 bc 46 f9 07 bc 4d eb ef bd
       0.031965554 -0.030500764 -0.0082991775 -0.11714802
000260 ef 89 09 be bc 4b 41 3d f4 47 b6 3d 2c 6b 46 be
       -0.13431524 0.047191367 0.08900443 -0.1937682
000270 9f 9b c9 bd 3d 65 e1 be da 95 7d bd e1 b0 cd 3c
       -0.098441355 -0.4402255 -0.061910488 0.025108756
000280 8f 03 74 3d 23 16 15 be e2 e4 30 3d 19 6d a6 bd
       0.059573706 -0.14559226 0.04318703 -0.081262775
000290 d0 b9 4c 3d bf 37 b1 be 40 0c 6c be da d7 9a bb
       0.049981892 -0.34612843 -0.23051548 -0.0047254385
0002a0 c8 cc cc bd 08 95 8d bd 48 05 8b be 6e 0e 43 be
       -0.099999964 -0.06913191 -0.27152467 -0.19048473
0002b0 19 87 6f be 88 b0 50 be c8 b0 76 be ac 40 d7 3c
       -0.2339138 -0.20379841 -0.24090874 0.026275955
0002c0 1b 36 18 be 73 94 1f bf d0 d7 00 3d d9 a7 01 be
       -0.1486439 -0.6233589 0.031455815 -0.12661685
0002d0 a8 e2 e5 bd c2 61 c9 bb f4 31 40 3e cd 9a a6 bd
       -0.11224872 -0.006145687 0.18769056 -0.08134995
0002e0 2e e4 ae 3c ae 97 55 be 78 69 6d 3c f9 5f 1c be
       0.021349039 -0.20858642 0.014490478 -0.15270986
0002f0 69 8b c1 bc e6 01 c3 be 9c 5a 28 bd 08 43 0b bd
       -0.023626046 -0.38087386 -0.041102037 -0.033999473
000300 29 83 ec bc ff a8 65 3d 4f 00 aa bc 52 e3 bd bd
       -0.028871136 0.05606937 -0.0207521 -0.092718735
000310 20 82 01 be 14 e2 9c bd 90 cb 1b 3c 11 d4 06 be
       -0.12647295 -0.076603085 0.009508982 -0.13166834
000320 00 6c 66 3d 8a f3 5e be bb 85 66 bd 3a b0 4b be
       0.05625534 -0.2177259 -0.05627988 -0.19891444
000330 67 32 e6 bc ec 5f 30 3d 17 2c 05 3b b1 ad 56 3c
       -0.028100206 0.04306023 0.002032047 0.013102935
000340 da d4 85 bd 99 73 0d be a3 73 14 3d 19 d8 b1 be
       -0.06534739 -0.13813628 0.036243092 -0.34735182
000350 6c 25 be 3c 9f 31 e6 3c 96 82 f9 bd 3a f4 19 3d
       0.023211204 0.028099833 -0.121831104 0.03758643
000360 8b 20 2c be b2 21 01 be 8f 25 b5 3b 72 97 e0 bd
       -0.16809289 -0.1261051 0.005528159 -0.10966386
000370 01 0a c8 3c 46 bc c7 be a8 2a 23 be b7 e7 f8 3d
       0.024418833 -0.3901083 -0.15934241 0.12153571
000380 34 e4 cb 3c 15 53 85 bd d1 44 54 be b0 d2 a5 3d
       0.02488909 -0.06509987 -0.20729376 0.08096826
000390 a9 1a cc bc 8b c5 1c be bf f4 04 3c a6 b8 a1 bd
       -0.024915056 -0.15309732 0.008114993 -0.07896547
0003a0 58 86 56 be 80 a6 30 bd 77 9c 10 be 1b 8d 36 be
       -0.20949686 -0.043127537 -0.14122187 -0.17827265
0003b0 8e 26 39 bd 45 70 67 3e fc b4 41 be 9a 32 4b bd
       -0.045202784 0.22601421 -0.18916696 -0.049608804
0003c0 7c 67 0a bc 7b 3b 02 bd 5d b0 19 bd cb 2c 75 bd
       -0.008447524 -0.031795006 -0.03752171 -0.05985717
0003d0 b2 38 58 3d 04 44 ce bd c5 9c c0 bc 03 f1 09 be
       0.052788444 -0.10071567 -0.023512254 -0.13470845
0003e0 5a ca c9 bd 94 47 49 bd 15 58 4d be dd 2a c6 be
       -0.098530486 -0.049140528 -0.20053132 -0.38704577
0003f0 ac d8 0f be f0 f2 36 be 97 1f 09 be 09 3d a8 bd
       -0.14047498 -0.17866111 -0.13390957 -0.082147665

fc2.bias f4 [84]
000000 fd 76 4c be e6 74 5f 3e 05 3e 74 be 32 66 5f be
       -0.19967265 0.21821937 -0.23851784 -0.21816328
000010 f4 56 06 be 8d 8d c1 ba 64 4e 67 be fb 65 36 be
       -0.13119107 -0.0014766917 -0.22588497 -0.1781234
000020 d4 ac c9 bd 2d 3b c7 3e e3 5a 9f be 98 a9 85 be
       -0.098474175 0.38912335 -0.3112403 -0.26105952
000030 d3 d1 43 bd 19 88 b2 bd d7 50 30 3e 1a 84 52 3f
       -0.047807526 -0.08717365 0.17218338 0.8223282
000040 85 8d 30 be 1b ac 58 3e a1 e5 96 be 9b d7 85 3d
       -0.17241485 0.21159403 -0.29472068 0.06535264
000050 be ec 75 3e 2c 33 01 be 5b 5a 92 3e de d7 3d be
       0.24016091 -0.12617177 0.2858456 -0.18539378
000060 8b 95 00 be f2 1c 58 3e 63 57 a5 be 84 ef be 3d
       -0.12557046 0.21104792 -0.32293233 0.09323028
000070 8d cb f7 3c 95 a5 af 3e b2 2a cc bc 69 3f d6 3e
       0.030248428 0.34306017 -0.024922702 0.41845253
000080 b5 ae 8f 3e ad 3e 1e be 17 c3 dc bd a3 e9 c5 bd
       0.28062978 -0.15453596 -0.10779398 -0.09663703
000090 bd 46 39 be 7b c8 f2 3d 04 f6 4b 3f 35 5c 66 3f
       -0.18093391 0.11854645 0.79672265 0.89984447
0000a0 4d 4f f4 bd f8 8c 03 3e b3 af 68 be 47 c0 ea bd
       -0.11929188 0.12846744 -0.22723274 -0.11462455
0000b0 fd 05 40 be 1f 20 4e 3e ac 33 87 bd 1b 18 54 be
       -0.18752284 0.2012944 -0.066016525 -0.2071232
0000c0 7c 52 47 be 5d 2b d0 be dd 54 82 bc c0 b1 77 be
       -0.19465059 -0.40658084 -0.015909607 -0.241889
0000d0 2c d7 de 3e e6 b4 4d 3e 95 37 8c bd dc 85 96 be
       0.43523538 0.20088539 -0.06846539 -0.29399002
0000e0 cf 31 9f be 50 3d 47 3f ca 93 10 3c 2c fb 86 3d
       -0.31092688 0.7782793 0.008824298 0.06590876
0000f0 b7 2e 8a be b0 d3 a8 bc 62 84 82 be 90 84 7e 3e
       -0.26988766 -0.020608753 -0.25491625 0.24855256
000100 72 41 64 3f 89 80 16 be 6a 24 f0 3e 3b f7 91 3e
       0.8916236 -0.1469747 0.46902782 0.28508934
000110 ca f7 37 be fa 27 1b be e7 db 81 bd 07 4e bc be
       -0.17965618 -0.15151969 -0.06340771 -0.3677828
000120 48 08 8b 3e d1 1d 4f 3f 09 90 76 be ac 28 09 be
       0.27154756 0.8090487 -0.24078383 -0.13394421
000130 fd 94 53 be 43 38 73 bd e6 7f 24 bd 22 f5 07 be
       -0.20662303 -0.059379827 -0.040161036 -0.13277104
000140 4c 31 72 be d0 02 1b be 14 79 01 be 24 e9 05 3e
       -0.23651618 -0.15137792 -0.12643844 0.13077217

fc3.weight f4 [10, 84]
000000 a6 c5 97 3d 2e fe 2d be 66 29 87 3e 6b 92 0c 3e
       0.07410745 -0.16991493 0.26398772 0.13727729
000010 61 03 8a bd 34 bf ac 3e eb ca 6a bc 1b 4f e4 ba
       -0.06738926 0.33739626 -0.014330606 -0.0017418595
000020 32 3c dd 3d 42 3c a5 3d 94 a5 7f be 87 57 3e be
       0.10802497 0.08068134 -0.24965507 -0.18588077
000030 b9 5f f6 bd 16 b9 58 3d 4c 2f ac 3d 73 55 c9 bd
       -0.120299764 0.052910887 0.08407459 -0.09830751
000040 03 18 20 3a e7 40 87 3e 76 15 87 3e 47 d0 18 be
       0.00061070936 0.26416704 0.2638356 -0.14923202
000050 85 c8 99 be b8 dd e1 3d f9 92 6c 3e 9c 30 2a 3d
       -0.30035797 0.110286176 0.2310294 0.041550264
000060 df 84 b5 3e 53 ac 2a bd d7 4d 09 3e 87 97 82 3e
       0.35452935 -0.041668247 0.134086 0.2550623
000070 41 34 36 bd 4a 10 8e be a6 1a a9 bd ac 8c 09 bf
       -0.044483427 -0.27746803 -0.08257036 -0.53730273
000080 08 bd a0 3e 5a e8 b7 bd 60 e7 b2 3d 69 b4 1a 3e
       0.3139422 -0.089798644 0.087355375 0.15107884
000090 65 47 ed 3d 43 ac ed be 12 77 ac 3e f2 84 e8 be
       0.11585883 -0.46420488 0.33684593 -0.4541393
0000a0 ea a3 76 3e 01 2d 45 3e bd 16 51 3e 3b 8e 63 3d
       0.24085966 0.19255449 0.2041883 0.055555563
0000b0 79 eb 1f bd 2d a0 ad 3e 04 a5 4e bd 23 82 b7 3d
       -0.039042924 0.33911267 -0.05045034 0.089603685
0000c0 35 cb 4c 3e 21 0b cd 3e fa 84 b8 3e 5a fa b1 bc
       0.19999392 0.40047553 0.36038953 -0.021725822
0000d0 9d 3d 83 3e d9 9d a1 3e da 71 26 3e 80 7a ce 3d
       0.25632945 0.3156574 0.16254368 0.10081959
0000e0 27 ac 06 3d 36 55 97 3e bd 71 83 3e 2d 47 ce 3e
       0.03287902 0.29557198 0.25672713 0.40288678
0000f0 24 59 b3 3d c7 6b 21 3d 04 ff b8 3d 1c 7a fd 3d
       0.087572366 0.039409425 0.09033015 0.12376806
000100 08 4e bd be 26 8f 43 3e 90 19 01 3e 61 8f 80 3d
       -0.36973596 0.19097576 0.12607408 0.06277347
000110 88 94 2a 3e a5 d8 da bc d2 db 30 3e 42 43 e8 bc
       0.16658223 -0.026714632 0.17271355 -0.028352384
000120 39 03 f5 3c 35 c6 a2 3e fd 45 fd 3d fe 1d 15 3e
       0.029908763 0.31791845 0.12366865 0.14562222
000130 95 a4 28 3e 2a 21 bb 3e b9 70 8e be 33 09 8b be
       0.16469033 0.3654874 -0.27820376 -0.27155456
000140 2d 2a 93 bd 90 d8 6b bd 33 b2 31 3c 6c 7c 66 3d
       -0.07185779 -0.057579577 0.010845709 0.056271
000150 81 62 de 3d 13 25 8c be 4f 96 f0 3e 35 3c ca 3d
       0.10858632 -0.27372035 0.46989676 0.09874765
000160 36 43 ca 3c 73 54 21 be 19 e6 a2 bb 47 ad 69 3d
       0.024690252 -0.15754871 -0.0049712774 0.057050016
000170 61 59 52 be f8 c4 c1 3e 3b 48 39 3c 82 b6 f0 bc
       -0.20541908 0.37845588 0.011308725 -0.029383902
000180 98 68 11 3e e5 cb 88 bb 40 c5 d7 be 14 4b 43 bf
       0.14200056 -0.0041746967 -0.42142677 -0.76286435
000190 dd 0f bc 3d df e3 11 3d c1 fb a6 3c 4d 56 1b be
       0.09182713 0.035617705 0.020383717 -0.1516964
0001a0 a1 59 a5 be ce 81 dd 3c 31 cd a7 3e 77 7d 47 3d
       -0.32294944 0.027039435 0.32773736 0.048703637
0001b0 24 f7 37 3d 04 7a 14 3c 05 4d 6a 3e 02 9e ac 3d
       0.044913426 0.009062294 0.22880943 0.08428575
0001c0 1b 9b 54 be 66 25 fb bd 7c e0 93 be 1a 2d ca 3c
       -0.20762293 -0.122629926 -0.28882205 0.02467971
0001d0 03 b1 df 3e e2 3e 7a 3a 47 76 21 bb e8 65 cf 3d
       0.43689737 0.00095461134 -0.002463715 0.10126859
0001e0 09 cc 6b 3e 94 71 f7 be 35 b3 2c be e7 68 47 bf
       0.23027052 -0.4832884 -0.16865237 -0.77894443
0001f0 46 7b 9b 3d 5f 38 2c 3e a2 97 e7 3e 52 10 85 3d
       0.07591872 0.16818379 0.45232874 0.064972535
000200 dc 4a c8 bd be b5 11 3b 17 69 37 be c7 98 1b 3e
       -0.09779903 0.002223357 -0.17911182 0.15194999
000210 8e 4f e0 3e bc 1d 46 3e 98 c2 7a 3d 61 7b f7 bc
       0.43810695 0.1934728 0.061220735 -0.030210199
000220 d3 9f e6 be 82 a8 87 3e 6c 66 13 3d f9 b7 be 3d
       -0.4504381 0.2649575 0.03598635 0.09312434
000230 18 03 81 3d 6d 43 d0 be d4 32 b3 bd 7c b0 48 3e
       0.06299418 -0.40676442 -0.08749929 0.19598573
000240 8c 20 63 3e cb c9 7f 3e f6 ef 58 3e 05 21 e9 3e
       0.22180384 0.24979322 0.21185288 0.45533004
000250 c8 e9 b9 be 84 a8 f5 3e aa 9b 5b 3e 4a b5 c0 bd
       -0.36311173 0.4798013 0.214461 -0.09409578
000260 ef 11 e5 3d 86 f0 b5 3c b9 b4 03 3f 54 1f 09 bd
       0.11185061 0.022209417 0.51447636 -0.033477142
000270 91 2e 5e 3e e4 7f 8e bc ce e6 c5 3e a4 e3 75 bd
       0.21697451 -0.017394967 0.38652653 -0.06003155
000280 3f 10 2f 3e c2 7c e9 3d 47 4e f1 be 57 04 d5 be
       0.17096041 0.11400749 -0.47130033 -0.41604874
000290 d1 a4 32 3d 67 81 06 bd 1e d8 8c 3e 3a 33 94 3e
       0.043614212 -0.03283825 0.27508634 0.28945333
0002a0 29 48 92 3d 45 63 fd 3d d7 0a 01 be 4d 07 cf bd
       0.0714267 0.1237245 -0.12601791 -0.101088144
0002b0 0a 88 ee bc 0c 17 af 3e 51 c5 cd 3c 49 4e 5a bd
       -0.029117603 0.3419727 0.025118502 -0.053297315
0002c0 1c c6 6e 3e ad b1 97 be f3 25 ab 3c 8f 62 70 3d
       0.2331776 -0.29627743 0.020892119 0.058687743
0002d0 b5 cd 4c 3d 62 6a b5 3d 9c ec 76 bd c5 39 18 3f
       0.050000865 0.088581815 -0.060284242 0.5946315
0002e0 8f 44 ee bc f4 4b e1 3d e1 08 f2 bd d0 ed 2a 3e
       -0.029085426 0.11000815 -0.118181 0.16692281
0002f0 08 19 37 3e 21 92 3e bd f9 d8 97 bd f3 1a c3 bd
       0.17880642 -0.046526078 -0.07414431 -0.095266245
000300 43 a6 c7 3d 4e 30 f5 bd 9e 99 15 be ca 66 fe 3d
       0.09748509 -0.11972104 -0.14609382 0.12421949
000310 2c 7d 2f 3e 54 a6 a6 3d 27 6f b1 bc 7b 37 49 3e
       0.17137593 0.08137193 -0.021659447 0.1965007
000320 c2 66 f4 bd 9d 6d d1 3a 71 95 3c 3c 5b ef 34 bd
       -0.11933662 0.0015978102 0.011510239 -0.04417358
000330 f3 e5 ef bd e7 14 73 3e 25 39 fc 3d 8c 79 55 3e
       -0.11713781 0.23738442 0.12315587 0.20847148
000340 56 5d dd 3d 1e 78 42 3e d3 4e 89 bb 54 3f 9c 3c
       0.10808818 0.18991134 -0.004190305 0.019073166
000350 27 65 46 3d e9 ef 07 bc 7e 52 0d bc a1 e4 95 bd
       0.04843631 -0.008296945 -0.008625625 -0.07318998
000360 4c ee e6 be a1 85 88 bd a7 db fe 3d 77 ea 83 bc
       -0.4510368 -0.06666113 0.12444239 -0.016103012
000370 a3 97 aa 3e 5e 0c 51 3e 2c 61 f1 3d df 4a cd 3d
       0.33318815 0.20414874 0.11786112 0.10024046
000380 f3 7d f4 bd 4c c6 03 3f a0 c8 0e 3e 9b 40 53 be
       -0.119380854 0.5147445 0.1394372 -0.20630114
000390 85 4e df bc 30 74 58 be cc 8b 00 be fe 57 52 3e
       -0.02725912 -0.21138072 -0.12553328 0.20541379
0003a0 4e 12 64 3e c7 6f 6a bd 60 4b 0d be 0a 2c 10 3c
       0.22272608 -0.057235505 -0.13798285 0.008799562
0003b0 a1 4a 59 3d fd 5d 8d bd f5 82 6c be a2 66 38 3d
       0.053049687 -0.069026925 -0.23096831 0.045019753
0003c0 44 11 f9 bb 25 48 18 be 5d f7 22 be 82 15 e9 bc
       -0.007600935 -0.14871271 -0.15914674 -0.028452639
0003d0 87 bc 1c 3d ee e6 43 bd 2e 81 f4 3e b6 72 9b 3d
       0.03826573 -0.047827654 0.47754806 0.07590239
0003e0 b4 60 98 3d aa cb 3e 3b 48 39 8a be 64 b3 4f 3d
       0.0744032 0.0029113092 -0.26996827 0.05070819
0003f0 ac 45 f2 bd 1c d7 8d 3e 9b e3 35 be a2 b0 62 be
       -0.11829695 0.27703178 -0.17762606 -0.22137693

fc3.bias f4 [10]
000000 21 c3 e4 3d d1 87 82 3f 1d 6a a5 be fa ef 06 bd
       0.111700304 1.0197698 -0.3230752 -0.032943703
000010 6b d2 2c bf ed 2f e1 be 34 a3 06 bf 66 52 a1 be
       -0.6750857 -0.43981877 -0.5259278 -0.31508178
000020 a4 9b fb 3e b9 bb 78 3f
       0.49142182 0.9716144
