tutorial/cifar_net.pth (torch_old, 249602 bytes, 10 tensors)

conv1.weight f4 [6, 3, 5, 5]
0	0xbe0b808c	-0.13623255
1	0x3e73fb94	0.23826438
2	0x3e6a1f8e	0.228636
3	0x3dad4eea	0.08462317
4	0xbde9773e	-0.11399697
5	0xbe53409d	-0.20630117
6	0xbeaa8007	-0.33300802
7	0x3e0f9e93	0.14025335
8	0x3f072e41	0.5280495
9	0x3e0e8dc7	0.13921271
10	0x3c740146	0.014892882
11	0xbea42bd0	-0.32064676
12	0xbea4c44a	-0.32181007
13	0x3e007fa8	0.12548697
14	0x3e42896f	0.1899774
15	0x3ea37677	0.3192632
16	0xbc1fa323	-0.009743485
17	0xbeb0fffd	-0.34570304
18	0xbeba9fae	-0.3644995
19	0xbda14760	-0.07874942
20	0x3d1f20ee	0.038849764
21	0x3ea8209c	0.3283738
22	0xbcdb8d2b	-0.026800713
23	0xbdfb620f	-0.122745626
24	0xbdf0acf4	-0.11751738
25	0xbe7cd8b5	-0.24692042
26	0xbc7a1467	-0.015263653
27	0x3e43f26a	0.19135442
28	0xbdb11c12	-0.08647932
29	0xbe232662	-0.1593261
30	0xbea64f5a	-0.32482415
31	0xbe8ca33a	-0.27468282
32	0x3e4838fa	0.19552985
33	0x3edf166a	0.43571788
34	0x3ca4b6c6	0.020106684
35	0xbcee59b9	-0.029095517
36	0xbe8ff58f	-0.28117034
37	0xbe65ed4c	-0.22453803
38	0x3e9af446	0.3026449
39	0x3e4a13b5	0.1973408
40	0x3ee6624a	0.44996864
41	0x3dd3f68a	0.10349758
42	0xbe879d93	-0.26487407
43	0xbeb22df3	-0.3480068
44	0x3dd53369	0.10410196
45	0x3e1faa81	0.15592386
46	0x3e99bb75	0.3002583
47	0x3d3f91e4	0.04676999
48	0xbc765d30	-0.015036866
49	0xbbc94e01	-0.006143332
50	0xbd74aaad	-0.05973308
51	0x3e440b82	0.19145015
52	0x3e016ccd	0.1263916
53	0xbe88d4b7	-0.2672479
54	0xbe69be5c	-0.22826523
55	0xbe82d3c4	-0.2555219
56	0xbe422f48	-0.18963349
57	0x3e5694a8	0.20955145
58	0x3ec32dee	0.3812098
59	0x3c5a74f6	0.01333355
60	0x3dff1cbc	0.124566525
61	0xbec56a50	-0.38557673
62	0xbeaf6163	-0.34253988
63	0x3e32aad0	0.17447972
64	0x3e5df5e1	0.21675827
65	0x3ec37c7c	0.38180912
66	0x3dee6160	0.116396666
67	0xbe60bb95	-0.21946557
68	0xbed8a1de	-0.42310995
69	0xbc9ecb7c	-0.019384138
70	0x3e9badb3	0.3040596
71	0x3e842bad	0.25814572
72	0x3d5441ce	0.05182057
73	0xbe1e1684	-0.15438277
74	0xbe3ddb9a	-0.18540803
75	0x3aa7e33f	0.0012808813
76	0xbda399ca	-0.07988317
77	0xbd3393ff	-0.043842312
78	0xbdda7c7d	-0.106682755
79	0xbd294b6a	-0.041331686
80	0xbde315f3	-0.11088171
81	0xbe35fc64	-0.1777206
82	0xbe0ab11c	-0.13544124
83	0xbd452755	-0.048133213
84	0x3b4d2947	0.003130512
85	0xbe7cab3e	-0.24674699
86	0xbd9d5b11	-0.07683385
87	0xbe13270e	-0.14370367
88	0x3c4be6cd	0.012445164
89	0x3ccd6a62	0.025075141
90	0xbe47d6b2	-0.19515494
91	0xbd5b2c04	-0.053508773
92	0xbd28334a	-0.041064538
93	0x3d05d7c5	0.032676477
94	0xbdd0dd14	-0.10198417
95	0xbd34a749	-0.044104848
96	0xbd59e569	-0.0531973
97	0x3cd19f0b	0.025588533
98	0x3c1fb355	0.009747346
99	0x3c3dcefe	0.011584995
100	0xbdfa4809	-0.12220771
101	0x3cbeab7f	0.023275135
102	0xbdff366e	-0.124615535
103	0xbd611b5b	-0.05495773
104	0xbc3ea1cb	-0.011635254
105	0x3d1fe881	0.039040092
106	0xbc4a6302	-0.012352707
107	0xbdb332d2	-0.087499276
108	0xbe0bc06d	-0.13647623
109	0xbe08fb00	-0.13376999
110	0x3ddf0f83	0.108916305
111	0x394e9944	0.00019702787
112	0x3d5523d2	0.052036114
113	0xbd90b1bb	-0.070651494
114	0xbe26587f	-0.16244696
115	0xbd27a9a9	-0.040933285
116	0x3cc55092	0.02408627
117	0x3dc2a5ea	0.09504302
118	0xbdafe03a	-0.0858769
119	0xbcc36ecb	-0.023856541
120	0xbe12d22d	-0.14337988
121	0x3c444311	0.0119788805
122	0xbcdfe47b	-0.027330628
123	0xbd4da0ed	-0.0502023
124	0xbe309f6b	-0.17248313
125	0x3e684700	0.22683334
126	0x3e947395	0.28994432
127	0x3e4c3006	0.19940194
128	0x3e03bf18	0.12865865
129	0x3d556d81	0.052106384
130	0x3ebb42af	0.36574313
131	0x3ebfcdb0	0.37461615
132	0x3e64bbe8	0.22337306
133	0x3e0b5172	0.13605288
134	0xbc1e8c75	-0.009677042
135	0x3e810adf	0.25203606
136	0x3ebc65f5	0.36796537
137	0x3e64a14e	0.22327158
138	0x3cb9019d	0.022583777
139	0xbdb4adc5	-0.088222064
140	0x3e9f947e	0.31167978
141	0x3e2e8eb3	0.17046623
142	0x3d48aa45	0.048990507
143	0xbaf163a4	-0.0018416536
144	0xbd0836a0	-0.03325522
145	0x3db61707	0.08891111
146	0x3e5f1c5d	0.21788163
147	0x3dc394f5	0.09549896
148	0x3d599218	0.05311784
149	0xbd1e5e71	-0.038664285
150	0x3e4d43fa	0.20045462
151	0x3d5a5c0f	0.05331045
152	0xbdf27352	-0.11838402
153	0xbde13de8	-0.10998136
154	0x3d96d745	0.07365278
155	0x3e028410	0.1274569
156	0xbe090e1f	-0.13384293
157	0xbea7b409	-0.32754543
158	0x3c15823d	0.0091252895
159	0xbc488b36	-0.012240222
160	0x3e35cd98	0.17754209
161	0xbec66718	-0.3875053
162	0xbe162ed3	-0.146663
163	0x3e450e6b	0.19243781
164	0x3e0090dc	0.1255526
165	0x3e482f52	0.19549301
166	0xbe9cf4ce	-0.3065552
167	0xbde0dd25	-0.1097968
168	0x3ec2bbbe	0.3803386
169	0x3d3709a6	0.044686936
170	0x3d61bed2	0.05511362
171	0xbe1dd8b9	-0.15414704
172	0x3cee83d4	0.029115595
173	0x3e5cedea	0.21575132
174	0x3c24f69f	0.010068565
175	0x3e85cd2f	0.26133105
176	0xbd839631	-0.06425131
177	0xbe682838	-0.22671592
178	0xbe002847	-0.12515365
179	0x3e21d7b0	0.15804935
180	0x3e0367e8	0.12832606
181	0xbeab7149	-0.33484867
182	0xbe84e47b	-0.25955567
183	0x3ce1e5b7	0.027575357
184	0x3e40cb64	0.18827587
185	0x3dff25a2	0.1245835
186	0xbebdb0c1	-0.37048915
187	0xbe250fe6	-0.16119346
188	0x3e26529f	0.16242455
189	0x3e87f398	0.26553035
190	0x3d83b0c8	0.06430203
191	0xbec505e5	-0.3848106
192	0xbe3ad6e3	-0.18246035
193	0x3ec6481b	0.38726887
194	0x3c72332f	0.014782711
195	0x3e0f7fcf	0.14013599
196	0xbe0ec9fb	-0.13944237
197	0xbd4ccf6c	-0.0500025
198	0x3e7b6769	0.24551167
199	0xbcdea333	-0.027177429
200	0x3e13bdba	0.14427844
201	0xbc84de92	-0.016219411
202	0xbe6018f2	-0.21884516
203	0xbd9aff58	-0.07568234
204	0x3e19aca6	0.15007266
205	0xbd87b818	-0.0662691
206	0xbe9edfc4	-0.31030095
207	0xbe3c99df	-0.18418072
208	0x3e386076	0.18005547
209	0x3eba4b83	0.36385736
210	0xbd0efe50	-0.0349105
211	0xbf01cb46	-0.50700796
212	0xbe41d630	-0.18929362
213	0x3e96ee09	0.2947848
214	0x3e8efc0c	0.27926672
215	0x3df06474	0.1173791
216	0xbe876ff3	-0.26452598
217	0xbca36e78	-0.019950137
218	0x3ed5f932	0.41791683
219	0x3e9cb2f2	0.30605274
220	0xbda7eed0	-0.08199847
221	0xbe805f67	-0.25072786
222	0x3d9a6808	0.07539374
223	0x3e4e7665	0.20162351
224	0x3e2c6ccb	0.16838376
225	0x3e8a4d10	0.2701192
226	0x3ee64fea	0.44982845
227	0x3eb07af5	0.3446881
228	0x3ea23f6d	0.31689015
229	0x3ed75229	0.4205487
230	0x3e74f0b5	0.23919947
231	0x3e6d08be	0.23147866
232	0x3e4c31d1	0.19940878
233	0x3da92aec	0.0826014
234	0x3e310448	0.1728679
235	0x3e8994bd	0.2687129
236	0x3e10fc0e	0.14158651
237	0x3d1b3c6b	0.037899416
238	0xbe2a349a	-0.16621628
239	0x3de14f4a	0.11001451
240	0x3d4901a8	0.049073845
241	0x3d8b51f1	0.068027385
242	0xbe73bf8d	-0.2380354
243	0xbe9d454d	-0.30716935
244	0x3de54ef8	0.11196703
245	0xbc6ebe55	-0.014571746
246	0xbea53a24	-0.3227092
247	0xbecb456e	-0.39701408
248	0xbeb529b9	-0.35383394
249	0xbe5484eb	-0.20753829
250	0xbdc9b3e9	-0.09848768
251	0xbd42d43c	-0.047565684
252	0xbe8906f6	-0.26763123
253	0xbeb9d4b5	-0.36295095
254	0xbedb9a7a	-0.42891294
255	0xbc81c43b	-0.01584064

conv1.bias f4 [6]
0	0xbe4f5b35	-0.20249636
1	0x3ee6002a	0.44922
2	0xbe19cbee	-0.15019199
3	0xbeb16580	-0.3464775
4	0xbed52371	-0.41628602
5	0xbe9793e5	-0.29605022

conv2.weight f4 [16, 6, 5, 5]
0	0xbd1ddc80	-0.038540363
1	0xbe2d23de	-0.16908213
2	0xbdd06444	-0.10175374
3	0x3e1b11f8	0.15143573
4	0x3e6bf632	0.23043135
5	0xbcb925be	-0.022601005
6	0xbe34f662	-0.17672113
7	0x3dfd47f3	0.12367239
8	0x3d87e28c	0.06635007
9	0x3ce39116	0.027779143
10	0xbd1843ea	-0.037174143
11	0xbd9c6717	-0.0763685
12	0xbcb0038c	-0.021486066
13	0xbc236927	-0.009973801
14	0xbd738254	-0.059450462
15	0xbce1511e	-0.0275045
16	0xbe267286	-0.16254625
17	0xbdc18610	-0.094493985
18	0xbd1602ff	-0.03662395
19	0x3b5ab45f	0.003337167
20	0xbe3e7107	-0.18597804
21	0xbe0c76ab	-0.13717143
22	0xbdbb0e29	-0.0913356
23	0x3cbe7799	0.023250388
24	0xbd1a1889	-0.037621055
25	0x3db68363	0.08911779
26	0x3d593ce8	0.0530366
27	0xbd8d5b07	-0.06902128
28	0xbddb9c4d	-0.107231714
29	0x3d1f7f7b	0.038939934
30	0x3d56bffb	0.05242918
31	0x3c718aa7	0.01474253
32	0x3d7d091c	0.061776266
33	0xbdb0091f	-0.0859549
34	0xbe1b8736	-0.15188298
35	0x3ddfdcfe	0.10930823
36	0xbd657e28	-0.056028515
37	0x3c825a8e	0.01591232
38	0xbe2fb187	-0.17157565
39	0xbe9db7a8	-0.3080418
40	0x3ddefb0d	0.10887728
41	0x3d83b736	0.06431429
42	0xbd2c2477	-0.042026963
43	0xbe749f4d	-0.23888893
44	0xbdd3e722	-0.103468195
45	0x3e20edc1	0.15715696
46	0x3d662b28	0.0561935
47	0xbc56259d	-0.013070491
48	0x3d34df47	0.044158246
49	0x3e27c676	0.163843
50	0xbd56b1ce	-0.05241566
51	0x3dbbd68c	0.09171781
52	0x3e86ad36	0.26304024
53	0xbdb69baa	-0.08916409
54	0xbed44653	-0.41459903
55	0x3d6dd6e4	0.058066264
56	0x3e1039fc	0.1408462
57	0xbe33f7ff	-0.17575072
58	0xbe9fe2c5	-0.312277
59	0x3e5f6d4d	0.21819039
60	0x3c1bcd6c	0.009509426
61	0xbdc8d543	-0.098063014
62	0xbebc041c	-0.36721885
63	0x3db905c5	0.090343036
64	0x3ed8e617	0.42363045
65	0xbd90a7a8	-0.07063228
66	0xbe3e0a43	-0.18558602
67	0x3d83f57f	0.06443309
68	0x3e7259f2	0.23667124
69	0x3c8eb19e	0.017418679
70	0xbe1a6cad	-0.15080519
71	0xbd74fb59	-0.059810016
72	0x3e45a7fe	0.19302365
73	0x3d5655c7	0.052327897
74	0xbd2e8aa7	-0.042612698
75	0x3d1731c5	0.0369127
76	0x3d7e162c	0.062032863
77	0xbe1d8bce	-0.15385363
78	0xbe217b07	-0.15769587
79	0x3ec646e7	0.3872597
80	0xbd4fb1e9	-0.050706778
81	0xbe05b530	-0.13057399
82	0xbdd2ef44	-0.102995425
83	0x3e5aa456	0.21351752
84	0x3e358854	0.17727786
85	0xbe29239e	-0.16517493
86	0xbdff20ad	-0.12457404
87	0x3e0f5b1e	0.13999602
88	0x3e740b01	0.23832323
89	0xbe1dcbc5	-0.15409763
90	0xbdb09365	-0.08621863
91	0x3de5523c	0.111973256
92	0x3e4d4a9f	0.20047997
93	0xbddb15b5	-0.106975
94	0xbe543fb8	-0.20727432
95	0x3e0c98b9	0.13730134
96	0x3e0f68d0	0.14004827
97	0xbda6726d	-0.08127294
98	0xbe31eebd	-0.17376228
99	0xbdb45bd4	-0.08806577
100	0xbe095fca	-0.13415447
101	0x3d33829b	0.043825727
102	0xbdb7771c	-0.08958265
103	0x3d025d27	0.03182712
104	0xbd90f104	-0.0707722
105	0xbd56b956	-0.052422844
106	0xbd0b48a1	-0.03400481
107	0xbe3ffffd	-0.18749996
108	0xbdc61d08	-0.09673506
109	0x3d1cf9d0	0.038324177
110	0xbdf7fdc4	-0.12108949
111	0xbe0cf4be	-0.13765237
112	0xbde55845	-0.11198477
113	0x3cdffbf7	0.027341826
114	0x3e77cdde	0.24199626
115	0xbe4abaf5	-0.19797881
116	0xbd9b7efa	-0.07592578
117	0x3e208893	0.15677099
118	0x3e2a9121	0.16656925
119	0x3c400211	0.011719243
120	0x3d90e39d	0.07074664
121	0x3e2536c1	0.16134168
122	0x3e50fe9f	0.2040963
123	0x3dc00dad	0.093776084
124	0xbe20b6aa	-0.15694681
125	0x3d1acb29	0.037791405
126	0x3d7d41ee	0.061830454
127	0xbe2581b9	-0.16162767
128	0x3d4fa49e	0.0506941
129	0xbda53e1f	-0.08068489
130	0x3caf1ce2	0.021376077
131	0xbcb922ba	-0.022599567
132	0xbd2d6641	-0.042333845
133	0xbcd79e90	-0.026320726
134	0xbe3881df	-0.18018292
135	0x3ca91709	0.020640867
136	0xbc0c2e3f	-0.008555948
137	0x3b971f97	0.00461192
138	0xbe10fb43	-0.14158349
139	0xbe87a16a	-0.26490337
140	0x3dc5b9b3	0.0965456
141	0x3dc7d0d5	0.097566284
142	0xbd5fd781	-0.05464888
143	0xbe2b23c1	-0.16712858
144	0xbda9e919	-0.08296413
145	0x3df52fce	0.11972009
146	0x3d936d6f	0.07198607
147	0xbdbba739	-0.091627546
148	0xbd77a385	-0.06045868
149	0xbe01c9fa	-0.12674704
150	0x3c4b1d7e	0.012397168
151	0xbdc0a010	-0.094055295
152	0xbe506df4	-0.20354444
153	0xbd6315a8	-0.055440575
154	0xbe402869	-0.18765415
155	0x3e63e738	0.22256172
156	0x3d9e4a73	0.07729044
157	0xbdb8746b	-0.0900658
158	0xbe03ed62	-0.12883523
159	0xbdf96004	-0.12176517
160	0x3e47e199	0.19519652
161	0x3d71dbf4	0.059047654
162	0x3d014448	0.03155926
163	0xbd5bac2a	-0.053630985
164	0xbd190a27	-0.037363198
165	0x3ee6e855	0.4509913
166	0x3ea21952	0.31659943
167	0x3dc54138	0.0963158
168	0x3df9c4fc	0.12195775
169	0xbc54eb1a	-0.012995506
170	0x3e889d0d	0.2668232
171	0x3e876d0a	0.26450378
172	0x3e4d6c39	0.20060815
173	0x3d4326ca	0.047644414
174	0x3dd856ef	0.10563456
175	0xbc3ad601	-0.011403562
176	0x3cefd76d	0.029277528
177	0x3cc32256	0.023820084
178	0xbe158fa4	-0.14605576
179	0xbd5a59e7	-0.053308394
180	0xbd361255	-0.044451077
181	0xbd574e22	-0.052564748
182	0xbcd6737e	-0.026178118
183	0x3c06ed82	0.008235337
184	0x3da4e523	0.08051517
185	0xbd845d56	-0.06463115
186	0x3d419d64	0.04726924
187	0xbb53ef02	-0.0032338505
188	0x3dc8ef1d	0.09811232
189	0x3de84c2a	0.11342652
190	0xbd99fd6b	-0.07519039
191	0x3b33a569	0.0027411825
192	0x3c60777c	0.013700362
193	0xbbe705f3	-0.0070502697
194	0x3cff3da4	0.031157322
195	0xbdbfef94	-0.09371868
196	0xbe63740a	-0.22212234
197	0xbe0e3a53	-0.13889436
198	0xbdfa3b55	-0.12218348
199	0xbe64b41c	-0.22334331
200	0xbdbe30f3	-0.0928668
201	0xbce4e827	-0.02794273
202	0xbdc6ef13	-0.097135685
203	0x3e4e7895	0.20163186
204	0x3db2bdca	0.08727606
205	0x3a8f469a	0.0010931075
206	0xbb931248	-0.0044882633
207	0xbda72429	-0.08161194
208	0x3d82bd1f	0.06383728
209	0x3d018988	0.0316253
210	0x3d2c1e34	0.04202099
211	0x3dc3b120	0.09555268
212	0xbc7be69c	-0.015374806
213	0xbcaa1d1c	-0.020765834
214	0xbd9cfcd5	-0.076654114
215	0xbe1650e2	-0.14679292
216	0xbddba789	-0.10725314
217	0xbd0d4217	-0.034486856
218	0xbda55780	-0.0807333
219	0xbc49849b	-0.012299682
220	0xbefbe30a	-0.49196655
221	0xbe9eb78e	-0.30999416
222	0xbde4be22	-0.111690775
223	0xbd1e414c	-0.03863649
224	0x3e141276	0.14460167
225	0xbe127fca	-0.1430656
226	0xbd9bdb9c	-0.076102465
227	0xbdea519e	-0.114413485
228	0xbe062570	-0.13100219
229	0xbe7032f8	-0.23456943
230	0x3e0a3bab	0.13499324
231	0x3c269adf	0.01016876
232	0xbe5c134f	-0.2149174
233	0x3da79484	0.08182624
234	0x3dc84464	0.097786695
235	0x3e0af6fe	0.13570783
236	0xbcc346f8	-0.023837551
237	0x3cfe4904	0.031040676
238	0x3e05790e	0.1303446
239	0x3e679380	0.2261486
240	0x3e00c834	0.12576371
241	0x3df4b318	0.11948222
242	0x3d435feb	0.047698896
243	0x3dea0788	0.11427218
244	0x3e37b593	0.17940359
245	0x3e5faf92	0.21844319
246	0x3da04443	0.0782552
247	0xbbaea33f	-0.005329519
248	0xbd5c964e	-0.05385428
249	0xbe1ff7c5	-0.1562186
250	0xbd844147	-0.06457763
251	0xbcff35ae	-0.031153526
252	0xbdf08eb8	-0.117459714
253	0xbdcd76f9	-0.10032458
254	0xbdf9808d	-0.12182722
255	0xbcc8b7e7	-0.024501754

conv2.bias f4 [16]
0	0xbddc8794	-0.10768047
1	0xbf1e44fd	-0.6182402
2	0x3e3c898d	0.18411846
3	0xbeba429a	-0.36378938
4	0x3e97bcd0	0.2963624
5	0x3bb4c242	0.0055163214
6	0xbce3045c	-0.02771204
7	0x3e0f02e8	0.13965952
8	0x3eb545df	0.3540487
9	0x3e28027e	0.164072
10	0xbd51be25	-0.051206727
11	0xbe218e5c	-0.15776962
12	0x3f93fea0	1.156208
13	0x3d0ca6eb	0.034338873
14	0xbe008e47	-0.12554274
15	0xbeb5324f	-0.35389945

fc1.weight f4 [120, 400]
0	0x3bfe90d3	0.0077687292
1	0xbddae629	-0.10688431
2	0x3d439cd1	0.047756974
3	0x3c84190c	0.016125225
4	0xbb745fc6	-0.003728853
5	0x3d98d225	0.07461957
6	0xbc8bf982	-0.017086748
7	0x3abe7ec5	0.001453363
8	0x3d98a5d4	0.07453504
9	0x3d1a7a9e	0.037714593
10	0x3caeef43	0.021354323
11	0xbd2caa4e	-0.042154603
12	0x3d33a625	0.04385962
13	0x3d273095	0.040817816
14	0x3d4b3c89	0.049618278
15	0x3c039235	0.008030464
16	0x3b7ecdef	0.003888007
17	0xbccf3b06	-0.0252967
18	0x3d6f4bdf	0.058421966
19	0x3ccd73e2	0.025079671
20	0xbd0b8396	-0.034061037
21	0x3d910ffe	0.070831284
22	0x3ceabcd9	0.028654503
23	0x3b3751ed	0.0027972416
24	0x3d60ba5c	0.054865226
25	0xbd4816b8	-0.04884979
26	0xbd13b542	-0.036061533
27	0xbc30deb4	-0.010795284
28	0x3cb70c99	0.022344874
29	0xbd243228	-0.040086895
30	0xbca8b448	-0.020593777
31	0xbd83376f	-0.064070575
32	0xbd962c8d	-0.07332716
33	0xbc873fc8	-0.016509905
34	0x3c0e0ee7	0.008670545
35	0xbdeb1ab8	-0.114797056
36	0x3c93444c	0.017976902
37	0xbd45e3dd	-0.04831301
38	0x3d26916e	0.040666036
39	0x3c606e70	0.013698205
40	0xbc3d53f8	-0.011555664
41	0x3bea94cb	0.007158851
42	0x3da76e6c	0.08175358
43	0x3d4e6207	0.050386455
44	0xbcec8753	-0.028873121
45	0xbd6e7a2e	-0.05822199
46	0x3c591daf	0.013251706
47	0xbd5663f5	-0.05234142
48	0xbd95b55d	-0.07309983
49	0xbd9f9f24	-0.077940255
50	0xbdc0b840	-0.09410143
51	0xbd5dfd58	-0.054196686
52	0xbdaa6c58	-0.08321446
53	0x3b39ef8a	0.0028371536
54	0x3cca8fcc	0.02472677
55	0xbd41a7b5	-0.04727908
56	0xbd5a1e67	-0.05325165
57	0xbbf2cda4	-0.007409768
58	0x3b6eef4c	0.003645855
59	0x3b06161e	0.002045996
60	0x3bf37635	0.007429863
61	0xbd5835b9	-0.05278561
62	0x3c044ee0	0.008075446
63	0xbd697ba3	-0.057002675
64	0xbdcc4a2e	-0.09975086
65	0xbcb5c17f	-0.022186993
66	0xba8492a5	-0.0010114504
67	0xbcbaf6e3	-0.022822803
68	0xbd817d9e	-0.06322788
69	0xbc7e0aac	-0.015505474
70	0xbc03a333	-0.008034515
71	0xbcf446dc	-0.029818945
72	0x3dab08f7	0.08351319
73	0x3d882faa	0.06649716
74	0x3bf6ae4b	0.0075281016
75	0x3c7af65a	0.015317524
76	0xbcb4d6bf	-0.022075055
77	0xbc99bdb9	-0.018767225
78	0xbd81fb33	-0.063467406
79	0x3d0069e8	0.031351
80	0xbbecb916	-0.0072242124
81	0xbd2102ef	-0.03930944
82	0xbdc8b7c9	-0.09800679
83	0xbbd34d1f	-0.0064484025
84	0x3c9d569d	0.01920634
85	0x3d516cb2	0.05112905
86	0x3b6691a4	0.0035182023
87	0x3b9f8694	0.004868338
88	0x3c226c7c	0.00991356
89	0x3c99ec70	0.0187895
90	0x3c2454f3	0.010030019
91	0xbc2d4be2	-0.010577174
92	0xbd6877c2	-0.056754835
93	0xbc6804fd	-0.014161346
94	0xbbbab7d4	-0.0056981836
95	0x3c2c66e7	0.010522581
96	0xbd2a5e9a	-0.041594125
97	0x3d00cc22	0.031444676
98	0x3d625737	0.055258956
99	0xbd6a81ec	-0.05725281
100	0x3d209d43	0.039212476
101	0x3d7a9153	0.06117375
102	0x3ce5d29b	0.028054526
103	0x3cb6a231	0.022294136
104	0x3cdbebc5	0.026845822
105	0x3d339e9b	0.04385243
106	0xbb5d07b1	-0.0033726508
107	0xbbff6a74	-0.0077946726
108	0xbc95d45d	-0.01828974
109	0xbc3abb4e	-0.011397196
110	0xbbf4fe0f	-0.007476575
111	0xbd3a89d6	-0.045541607
112	0xbd7745dc	-0.060369357
113	0xbd6d2861	-0.057899836
114	0xbcb27faf	-0.0217894
115	0x3d6b8cc0	0.057507277
116	0x3cc6c2f6	0.024262886
117	0xbd34921f	-0.044084664
118	0xbd7c3f51	-0.06158382
119	0xbd559582	-0.052144535
120	0x3c65208b	0.01398481
121	0xbcc9ba32	-0.024624918
122	0x3d0fa57a	0.03506992
123	0xbd93a2c8	-0.072087824
124	0xbc92dba6	-0.017927002
125	0x3d136d90	0.03599316
126	0xbc7f9d7f	-0.015601515
127	0x3c794862	0.015215011
128	0x3cdd2fc7	0.027000321
129	0xbc4de393	-0.012566465
130	0xbb322f80	-0.0027188957
131	0xbd092715	-0.033484537
132	0xbca3a0d4	-0.01997415
133	0xbc8aa151	-0.016922625
134	0x3c92c426	0.017915796
135	0x3d0841c2	0.033265837
136	0x3d19a3d4	0.037509754
137	0x3b5226a4	0.0032066489
138	0xbd3002e0	-0.04297149
139	0x3d220544	0.039555803
140	0x3bad8fb5	0.005296672
141	0xbc3bcb49	-0.011462041
142	0x3cc39d5b	0.023878744
143	0xbc463540	-0.012097657
144	0xbc43c4db	-0.0119487895
145	0xbcd80b18	-0.026372477
146	0x3b9d145e	0.0047936877
147	0x3c9ebd68	0.019377425
148	0xbb9306e3	-0.004486905
149	0x3d20ff54	0.039306
150	0x3c8300fb	0.015991678
151	0xbd5f2003	-0.054473888
152	0xbc94268a	-0.018084783
153	0x3d677a84	0.056513324
154	0x3cf43a19	0.02981286
155	0xbd5d7d7c	-0.05407475
156	0x3b910d9f	0.0044266726
157	0x3d3275fe	0.043569557
158	0x3d0376c5	0.03209569
159	0x3c8e1485	0.017343769
160	0xbd890399	-0.06690139
161	0x3d0962fd	0.03354167
162	0x3827f483	4.0043622e-05
163	0x3d6c9401	0.057758335
164	0xba034659	-0.0005007736
165	0x3bdf4a86	0.006814304
166	0xbd1b5cc8	-0.03793028
167	0xbcc52941	-0.024067523
168	0xbcf45cb0	-0.029829353
169	0xbb563a4c	-0.0032688556
170	0xbd870f56	-0.06594722
171	0x3c1a78a5	0.009428178
172	0xbd3a3050	-0.04545623
173	0x3d19e992	0.037576266
174	0xbd01c2df	-0.031679984
175	0x3d305292	0.043047495
176	0xbc3210c0	-0.010868251
177	0x3d423034	0.04740925
178	0x3d0cd06f	0.034378465
179	0x3b536fbc	0.0032262644
180	0x3c5dca70	0.013537034
181	0xbcb31992	-0.021862779
182	0xbce8f4f3	-0.028437113
183	0x3d08525d	0.033281673
184	0xbd418c2d	-0.047252823
185	0xbd3c80be	-0.046021216
186	0x3d33b7c8	0.04387644
187	0xbd171342	-0.0368836
188	0x3cfd0117	0.030884309
189	0xbd0b4cab	-0.034008663
190	0xbccb6cdb	-0.02483218
191	0xbce3044d	-0.027712012
192	0xbd26d26f	-0.04072803
193	0xbd50ab7b	-0.050944787
194	0x3d0f1b75	0.034938294
195	0xba911d44	-0.0011071344
196	0x3bcc5030	0.006235145
197	0xbd2874fc	-0.04112719
198	0x3c25d3a9	0.0101212645
199	0xbcb7339b	-0.022363475
200	0x3d22c7f5	0.039741475
201	0x3d23e8b7	0.040016856
202	0x3d865f9f	0.06561207
203	0x3d2cd860	0.04219854
204	0x3cd31151	0.025765093
205	0xbcd53324	-0.026025362
206	0xbc8f8c32	-0.017522905
207	0xbb958959	-0.0045634923
208	0xbc763082	-0.015026214
209	0xbd5091ef	-0.050920423
210	0x3cf6b6e4	0.030116506
211	0x3b554689	0.0032543263
212	0xbd17b50b	-0.03703789
213	0xbda6cdc8	-0.081447184
214	0xbd6791fc	-0.056535706
215	0xbd564054	-0.05230744
216	0xbd03c218	-0.032167524
217	0xbd5a7fbf	-0.053344484
218	0xbd9caae1	-0.0764978
219	0xbd2f1671	-0.04274601
220	0xbc049e48	-0.008094378
221	0xbd4466dc	-0.047949657
222	0xbcacfa31	-0.021115394
223	0xbc5faadc	-0.013651576
224	0xbd7637af	-0.060111698
225	0x3cac2b7c	0.021016829
226	0x3d12ba11	0.035821978
227	0x3d2bc866	0.04193916
228	0xbb26999c	-0.0025421148
229	0x3c2212e4	0.009892199
230	0xbce82a9e	-0.028340634
231	0xbc0f6d72	-0.008754121
232	0x3bbb4eff	0.005716204
233	0x3d341dd4	0.04397376
234	0x3d6b4779	0.05744121
235	0x3d203b63	0.039119136
236	0xbc35f02f	-0.0111046275
237	0xbb1f17c8	-0.002427565
238	0x3cbadfbe	0.022811767
239	0xbcfc808b	-0.030823013
240	0xbd4d3b06	-0.050105117
241	0x3b0b6cba	0.0021274523
242	0xbd082862	-0.033241637
243	0x3c4bd28b	0.012440334
244	0x3cb817ef	0.02247235
245	0xbd0f57cc	-0.03499584
246	0x3d29afc2	0.04142738
247	0x3b3d97ff	0.0028929708
248	0x3c976267	0.01847954
249	0x3ce9353c	0.028467767
250	0xbc951d29	-0.018202381
251	0x3d560680	0.052252293
252	0xbd13d191	-0.03608853
253	0xbbadc0fa	-0.0053025456
254	0x3d1d2fff	0.03837585
255	0x3c998fbb	0.018745294

fc1.bias f4 [120]
0	0x3e0b168b	0.13582818
1	0xbc934064	-0.01797504
2	0x3e1fb074	0.15594655
3	0x3bdead36	0.0067955507
4	0x3e3446f2	0.17605188
5	0xbd53aa51	-0.0516761
6	0xbe4220f3	-0.18957882
7	0x3bb5a47f	0.005543291
8	0x3d3eb457	0.046558704
9	0x3d1e53b5	0.038654048
10	0xbd265bf0	-0.040615022
11	0x3c1803e0	0.009278268
12	0x3b1d7dea	0.002403135
13	0x3c8342f3	0.016023135
14	0x3d40090a	0.04688362
15	0x3cb544e6	0.02212758
16	0xbcccd56f	-0.025004117
17	0xbd80e3b5	-0.06293432
18	0x3c671a21	0.014105351
19	0x3e2f76ef	0.17135213
20	0x3c8f8f82	0.017524485
21	0x3e2336ad	0.15938826
22	0xbbb20b49	-0.005433474
23	0x3d937053	0.071991585
24	0xbccdc8c3	-0.025120145
25	0xbd939e5b	-0.07207938
26	0x3d7dd345	0.06196906
27	0x3da7adef	0.08187472
28	0x3d0ff696	0.035147272
29	0x3caab2f9	0.020837294
30	0x3e0d7a89	0.13816275
31	0x3de7e057	0.11322086
32	0xbd66d144	-0.056351915
33	0xbd6b1951	-0.05739719
34	0x3caf15e5	0.021372745
35	0x3cd19186	0.025582086
36	0xbc6edb8b	-0.01457871
37	0x3d22c3f3	0.039737653
38	0xbd838dda	-0.064235404
39	0xbc3f235b	-0.011666144
40	0x3dd6de73	0.104916476
41	0x3dfc6356	0.12323634
42	0x3da5bb46	0.0809236
43	0x3c7d0023	0.015441927
44	0xbdba942b	-0.09110292
45	0x3d29ab84	0.041423336
46	0x3d4d7b3e	0.05016636
47	0x3d8d2c95	0.06893269
48	0x3de55afd	0.11198995
49	0xbac786a1	-0.0015222618
50	0xbd9c3eec	-0.07629189
51	0xbb4318ed	-0.0029769496
52	0x3d6928c1	0.05692363
53	0x3af50e09	0.0018696199
54	0x3c7d7d67	0.015471793
55	0x3dec4326	0.11536245
56	0xbc88dc14	-0.016706504
57	0x3d7a7457	0.061146107
58	0xbc3733a7	-0.0111817485
59	0x3cb9c264	0.0226757
60	0xbc3e21eb	-0.011604766
61	0xbd104433	-0.03522129
62	0xbc3682a9	-0.01113955
63	0xbdfbdd92	-0.122981206
64	0x3e19b553	0.15010576
65	0x3bbbb97c	0.0057288986
66	0x3dfcc080	0.12341404
67	0x3de81657	0.11332386
68	0x3d1d3fcb	0.038390916
69	0x3d4f55bd	0.050618876
70	0x3d7d2a9a	0.061808206
71	0xbdff888e	-0.124772176
72	0x3d326e3e	0.043562166
73	0x3e124f37	0.1428803
74	0x3dc42c6b	0.095787846
75	0x3e11fb91	0.14256121
76	0x3d9123b8	0.07086891
77	0x3cbbc72c	0.022922121
78	0xbdbcf739	-0.092268415
79	0x3d805aa0	0.06267285
80	0xbdf5b6e9	-0.11997778
81	0x3cafb1f4	0.02144716
82	0x3d2a4677	0.041571107
83	0x3c17f3d6	0.009274444
84	0x3d82c344	0.063849
85	0x3cb72348	0.02235569
86	0xbe2ab69a	-0.1667122
87	0x3c7e2b24	0.015513215
88	0xbdb95e5b	-0.090512
89	0x3e1a3d65	0.15062483
90	0xbc40ac3d	-0.011759815
91	0x3dad52b5	0.08463041
92	0x3c63fb13	0.013914841
93	0xbd432857	-0.047645893
94	0xbd82a38a	-0.06378849
95	0x3e4eac4d	0.20182915
96	0x3dffb233	0.12485161
97	0x3c4939ae	0.012281818
98	0xbd188eb1	-0.037245456
99	0x3d871481	0.06595708
100	0x3d32b0fa	0.04362581
101	0xbca2a011	-0.019851716
102	0x3df5b4c5	0.1199737
103	0xbd29fec7	-0.04150274
104	0x3d582b98	0.05277595
105	0xbcc754cc	-0.024332426
106	0x3dc9e989	0.098589964
107	0xbc95390c	-0.018215679
108	0x3d9a2809	0.07527167
109	0x3ce23b9c	0.027616315
110	0xbdb4636f	-0.08808028
111	0x3d76a8bb	0.060219508
112	0x3e051e34	0.12999803
113	0xbe281b9c	-0.16416782
114	0xbdef13df	-0.11673712
115	0x3da78d28	0.0818122
116	0xbdc54bba	-0.09633584
117	0x3e2b36d3	0.16720133
118	0x3c23f2aa	0.010006586
119	0x3c8a4952	0.016880665

fc2.weight f4 [84, 120]
0	0xba14410b	-0.0005655444
1	0x3d249f23	0.040190827
2	0xbd0bc119	-0.0341197
3	0xbdd02e4d	-0.10165081
4	0xbdeda776	-0.11604206
5	0xbd7aaa94	-0.061197832
6	0xbd9a5d4e	-0.07537328
7	0xbda46902	-0.08027841
8	0x38722e5b	5.7740468e-05
9	0xbd5e607f	-0.054291245
10	0x3db0ee46	0.08639197
11	0xbbc0468d	-0.0058677853
12	0x3c26e3f5	0.010186185
13	0x3d9ebc7c	0.07750794
14	0xbc2243a9	-0.009903827
15	0xbdda3ef1	-0.10656536
16	0x3b3ae2e0	0.0028516576
17	0x3cb40167	0.021973325
18	0x3dbccc00	0.092185974
19	0x3d4afe8a	0.049559154
20	0x3bd7a979	0.006581482
21	0x3c678770	0.014131412
22	0x3d29c502	0.041447647
23	0x3c1fef75	0.009761681
24	0x3c7b725a	0.015347088
25	0xbd164501	-0.0366869
26	0xbd11cd66	-0.035596274
27	0xbd90854b	-0.070566736
28	0xbcc86a3b	-0.024464717
29	0xbbbcc1c8	-0.005760405
30	0x3c86a548	0.016436234
31	0x3c6b9e37	0.014380983
32	0x3d5586c2	0.05213047
33	0xbdbff3c7	-0.09372669
34	0x3cd3151d	0.025766904
35	0x3d50692e	0.050881557
36	0xbd8793b6	-0.066199705
37	0x3c858e5f	0.01630324
38	0xbc854f95	-0.0162733
39	0xbda35951	-0.0797602
40	0xbdd2c74d	-0.1029192
41	0xbd389a50	-0.04506904
42	0x3d83366b	0.06406864
43	0x3d89d762	0.06730534
44	0xbd59fb6d	-0.053218294
45	0xbd5f6106	-0.054535888
46	0x3d87f51d	0.066385485
47	0xbcb1a05c	-0.02168291
48	0x3d98f586	0.07468705
49	0xbc8215e5	-0.01587958
50	0x3c600e8f	0.013675346
51	0xbd66efa6	-0.05638089
52	0xbd9de915	-0.077104725
53	0xbbdd924a	-0.006761824
54	0xbd8aa71e	-0.06770156
55	0x3d965fdc	0.073425025
56	0xbd8566fa	-0.06513782
57	0x3dc5c0de	0.09655927
58	0x3d20c196	0.039247118
59	0x3da4d08d	0.080475904
60	0xbd8aea62	-0.06782986
61	0x3d93bc8b	0.07213696
62	0x3d2754da	0.040852405
63	0x3d77cd73	0.060498666
64	0xbd462389	-0.048373733
65	0xbc98ad13	-0.018637216
66	0xbcb2db78	-0.021833166
67	0xbda23b67	-0.07921486
68	0x3ca524ef	0.020159213
69	0x3b04c0b7	0.0020256469
70	0x3d15bea0	0.036558747
71	0xbd854f0b	-0.06509217
72	0x3d447abb	0.047968607
73	0xbdb27279	-0.0871324
74	0x3c180316	0.0092780795
75	0xbd82d6a2	-0.06388594
76	0x3afe20d8	0.001938845
77	0x3cfb725b	0.030694177
78	0xbd496ea5	-0.049177784
79	0xbd938794	-0.07203594
80	0xbcf5a85f	-0.029987512
81	0x3d825823	0.06364467
82	0xbd5bffd6	-0.05371078
83	0x3d01c01d	0.031677354
84	0xbdad13c2	-0.08451034
85	0xbd8a49e6	-0.06752376
86	0x3d61b9f1	0.05510897
87	0xbd8b4e42	-0.06802036
88	0xbda7010c	-0.081544966
89	0x3d135254	0.035967186
90	0x3d8d4ab6	0.068990156
91	0xbd802a4a	-0.06258066
92	0xbd89e607	-0.06733327
93	0x3cb8d46a	0.022562224
94	0x3d43afd8	0.04777512
95	0x3d8cc23f	0.06872987
96	0x3d23939c	0.039935693
97	0x3d87cc62	0.0663078
98	0x3cd0a1e8	0.025467828
99	0x3be552a6	0.006998378
100	0xbcc556d2	-0.02408925
101	0x3d88c09d	0.06677363
102	0x3d470a5c	0.048593864
103	0x3d442f21	0.047896508
104	0xbdc21b47	-0.09477859
105	0xbd734014	-0.05938728
106	0xbab8018f	-0.001403855
107	0x3d563560	0.052296996
108	0x3c9755eb	0.018473586
109	0x3d0938d2	0.033501454
110	0x3d73340e	0.059375815
111	0x3c02904c	0.007968973
112	0xbdebfea5	-0.11523179
113	0x3ca51e89	0.020156162
114	0x3dc92c17	0.098228626
115	0x3d64714b	0.055772107
116	0x3d9098a6	0.070603654
117	0xbcef37ba	-0.029201377
118	0x3da9ecf5	0.08297149
119	0x3c58889b	0.013216163
120	0x3da0da88	0.078541815
121	0xbdb138f6	-0.086534426
122	0x3ca634d0	0.020288855
123	0x3c124d69	0.008929589
124	0x3d4e075b	0.050299983
125	0x3d86b3a8	0.065772355
126	0xbe0eb465	-0.13936003
127	0xbd99f50e	-0.075174436
128	0xbd81471f	-0.063123934
129	0xbd07167b	-0.032980423
130	0x3d906e06	0.07052235
131	0xbde82901	-0.11335946
132	0xbd9590c9	-0.07303006
133	0xbda69299	-0.0813343
134	0x3e2a234f	0.16615032
135	0xbd13c9f9	-0.036081288
136	0xbd13b21d	-0.036058534
137	0xbe26e21f	-0.16297196
138	0xbe144922	-0.14481023
139	0xbd0c7bcc	-0.03429775
140	0xbe081046	-0.13287458
141	0x3e50c7e4	0.20388752
142	0x3d0a2964	0.03373088
143	0xbcf7bc5d	-0.030241186
144	0xbc7cd276	-0.015431037
145	0x3d786f5d	0.06065308
146	0xbb31b294	-0.0027114497
147	0xbdb96749	-0.09052903
148	0xbda3c1d2	-0.07995953
149	0x3cb079cd	0.021542454
150	0x3d1d01ef	0.038331922
151	0x3e25e6d7	0.1620134
152	0x3bad8869	0.0052958024
153	0xbe075ca4	-0.13218933
154	0xbd11daae	-0.03560894
155	0xba8d182e	-0.0010764652
156	0x3d9dcd7f	0.07705211
157	0xbc02cce0	-0.007983416
158	0x3dd21bcb	0.10259207
159	0xbd6437f3	-0.05571742
160	0x3d1d75ae	0.038442306
161	0x3e016588	0.12636387
162	0xbaa8252f	-0.0012828464
163	0xbdc28fad	-0.0950006
164	0x3e16f14f	0.1474049
165	0xbd612e49	-0.05497578
166	0x3cf0f0cc	0.029411696
167	0x3e2064ae	0.15663406
168	0x3d88c06e	0.06677328
169	0xbd4c4589	-0.049871
170	0x3d73cc3c	0.059520945
171	0xbca37d5d	-0.019957239
172	0x3d4611ba	0.04835675
173	0xbcc8378b	-0.024440547
174	0xbd22785c	-0.039665565
175	0x3d1c1284	0.038103595
176	0x3d100ae1	0.035166625
177	0x3d9c256a	0.07624324
178	0xbce94318	-0.028474376
179	0xbd9be2b3	-0.07611599
180	0x3dc7f226	0.09762983
181	0x3cb35a35	0.0218936
182	0x3d3b5149	0.045731816
183	0xbdb17eff	-0.08666801
184	0x3d68fe0f	0.056882914
185	0x3c046bb9	0.008082324
186	0x3d577191	0.05259854
187	0x3d55dcac	0.052212402
188	0x3e2bb240	0.16767216
189	0x3db26e8d	0.08712492
190	0x3dee8991	0.116473325
191	0xbdcbd14a	-0.09952028
192	0x3dd434b4	0.10361615
193	0x3d1b1496	0.03786143
194	0xbded1509	-0.11576278
195	0x3d33d357	0.04390272
196	0xbdd03aa2	-0.10167433
197	0xbd3b19d2	-0.04567892
198	0xbe2042c9	-0.15650477
199	0x3d647843	0.055778753
200	0xbba3a25d	-0.0049937204
201	0x3c8d721a	0.017266322
202	0x3d85a312	0.06525244
203	0x3d906086	0.070496604
204	0xbc2f2c74	-0.010691751
205	0x3cf237d9	0.029567646
206	0x3d86e73e	0.06587075
207	0xbe07ce2f	-0.13262247
208	0xbdee1ab6	-0.116261885
209	0xbd34308f	-0.04399162
210	0xbd09058c	-0.033452556
211	0x3bc63fc9	0.0060500843
212	0xbcc16aa9	-0.02361043
213	0x3e0953b0	0.1341083
214	0xbe23a2d1	-0.15980078
215	0xbde1c185	-0.11023239
216	0x3d862ba0	0.065512896
217	0x3da5c697	0.08094519
218	0x3d2df4ab	0.04246966
219	0x3dd46dea	0.10372527
220	0x3e25544e	0.16145441
221	0x3dded4b7	0.10880416
222	0xbd94a563	-0.072581075
223	0xbe3f4bc8	-0.18681252
224	0x3c20ec16	0.009821912
225	0xbd02c748	-0.03192833
226	0xbcb3fa74	-0.021970011
227	0xbe150b59	-0.1455511
228	0x3e44bba5	0.19212206
229	0xbd2d9f71	-0.042388383
230	0xbce775cb	-0.02825441
231	0x3c4c7521	0.012479098
232	0xbe2a9e2d	-0.16661902
233	0xbcf0dd6b	-0.029402455
234	0xbdcfa74c	-0.10139331
235	0x3d347a01	0.044061664
236	0xbc1f9fa3	-0.00974265
237	0xbd82ca0d	-0.063861944
238	0x3c7cae9c	0.0154224895
239	0x3df2873b	0.118421994
240	0xbd9e6ff0	-0.07736194
241	0x3d353bac	0.04424636
242	0xbb6b17a9	-0.0035872257
243	0xbcbe94a9	-0.023264246
244	0xbdab41f0	-0.08362186
245	0x3dbb4782	0.091444984
246	0xbc8176e8	-0.01580377
247	0x3d424f86	0.04743912
248	0xbb629324	-0.0034572566
249	0xbd89065b	-0.06690665
250	0x3dd94d52	0.10610451
251	0xbd75d14d	-0.060014058
252	0x3da2f85f	0.07957529
253	0x3d4bcd02	0.049756058
254	0x3d99cf04	0.07510188
255	0x3c35fbd2	0.011107402

fc2.bias f4 [84]
0	0xbd9a14d8	-0.07523507
1	0x3e91d478	0.28482413
2	0xbd2b0f8a	-0.041762866
3	0x3dac6932	0.08418502
4	0x3e1fd1c3	0.15607361
5	0x3db05649	0.086102076
6	0xbbd54316	-0.0065082414
7	0xbd703458	-0.05864367
8	0x3e4617c7	0.19345008
9	0x3e529a18	0.20566595
10	0xbd21dd64	-0.039517775
11	0x3e3763e7	0.17909203
12	0xbdfb585f	-0.12272715
13	0xbd10ddb6	-0.03536769
14	0xbc5bf24a	-0.013424465
15	0x3dc2e923	0.095171236
16	0xbd86e3bc	-0.06586406
17	0x3e21f0e2	0.15814546
18	0xba9fa4d4	-0.001217986
19	0xbd0c233b	-0.034213286
20	0xbb807db5	-0.0039212354
21	0x3e7391ea	0.2378613
22	0xbb8d951d	-0.004320754
23	0x3ebf5f6b	0.37377486
24	0xbd9f8ded	-0.07790742
25	0xbdbb499c	-0.09144899
26	0x3d8474f8	0.064676225
27	0x3dadc702	0.08485223
28	0x3ec3ccf6	0.3824231
29	0xbd011b96	-0.03152045
30	0xbd9b9f68	-0.07598764
31	0xbce54d38	-0.027990922
32	0xbd3e645b	-0.046482425
33	0x3e85c3bf	0.26125905
34	0x3e379df6	0.17931351
35	0x3dad4a2a	0.08461411
36	0xbe39b16a	-0.18134084
37	0xbd54a54e	-0.05191546
38	0xbd58d422	-0.05293668
39	0xbd2ae1ad	-0.041719127
40	0x3d886b4a	0.06661089
41	0xbc3fd7ea	-0.011709193
42	0xbddbc877	-0.10731595
43	0x3e26c1c0	0.16284847
44	0xbda09028	-0.078399956
45	0x3e32879b	0.17434542
46	0x3ddefb55	0.108877815
47	0xbcec92dd	-0.028878624
48	0x3e773215	0.24140199
49	0xbe1ecf80	-0.15508842
50	0x3dc22bb7	0.09480994
51	0x3dc278ef	0.094957225
52	0x3cefa0a7	0.02925141
53	0x3dcc4627	0.09974318
54	0xbca6dc87	-0.020368828
55	0x3dbff8ec	0.0937365
56	0x3d1fa5bd	0.03897642
57	0x3cf7cfbf	0.030250428
58	0xbdaa2379	-0.08307547
59	0x3d09ce53	0.03364403
60	0xbbc0c100	-0.0058823824
61	0xbd21cc7b	-0.03950165
62	0x3eca7e17	0.39549324
63	0xbd7df742	-0.06200338
64	0xbce4855b	-0.02789562
65	0x3e6aa94f	0.22916149
66	0xbd714329	-0.05890194
67	0xbe05bd95	-0.13060601
68	0x3e4299b7	0.1900395
69	0xbd933719	-0.071882434
70	0xbdc487aa	-0.09596188
71	0x3e247902	0.16061786
72	0x3ec6254c	0.3870033
73	0x3e24395d	0.16037507
74	0xbdb2f875	-0.08738796
75	0xbdc907aa	-0.09815915
76	0xbd4e5862	-0.050377257
77	0x3e909eb9	0.28246096
78	0x3d5ba47b	0.053623658
79	0xbd212da5	-0.03935017
80	0x3d9376ca	0.072003916
81	0x3db55b9a	0.08855362
82	0x3da89f89	0.08233554
83	0x3e8c0c08	0.2735293

fc3.weight f4 [10, 84]
0	0x3deb4b8d	0.114890195
1	0x3e4918c0	0.19638348
2	0x3e94ac27	0.29037592
3	0x3da0cb4b	0.07851275
4	0x3dd2df33	0.10296478
5	0xbc6d721e	-0.01449254
6	0x3e08480b	0.13308732
7	0xbd85977f	-0.06523036
8	0x3d49222e	0.049104862
9	0x3db7a68c	0.08967313
10	0x3c995310	0.018716365
11	0x3d6e0acc	0.058115765
12	0xbd7e1ab8	-0.0620372
13	0x3e4567eb	0.19277923
14	0xbd80b59f	-0.062846415
15	0x3e68c5b4	0.22731668
16	0x3c728eb8	0.014804535
17	0xbe60c1c0	-0.2194891
18	0x3c89668a	0.016772527
19	0x3e1dc168	0.1540581
20	0xbcc3689c	-0.023853593
21	0x3ddbca4b	0.10731944
22	0xbd4c79de	-0.04992091
23	0x3eab5c34	0.33468783
24	0xbd52843c	-0.05139564
25	0xbb9c2408	-0.0047650374
26	0x3d21292d	0.03934591
27	0x3e4fc794	0.20290977
28	0xbd3c6b42	-0.046000727
29	0xbd962ae8	-0.073324025
30	0xbcbfeb62	-0.023427669
31	0xbdae332f	-0.08505856
32	0x3d1edef4	0.038786843
33	0x3b150b80	0.002274245
34	0x3e3243bf	0.17408656
35	0x3c218edf	0.009860723
36	0xbda4180c	-0.08012399
37	0xbb534211	-0.0032235424
38	0x3bcd9af3	0.006274575
39	0x3c8eb288	0.017419115
40	0xbc9dad22	-0.019247595
41	0x3e019a1e	0.12656447
42	0x3e67acf7	0.22624575
43	0x3d96cc13	0.07363143
44	0x3d107a37	0.035272803
45	0x3e84f54e	0.25968403
46	0xbe3179a6	-0.17331561
47	0xbc47ca99	-0.012194299
48	0x3db6960a	0.089153364
49	0x3d99b119	0.07504482
50	0xbe469da5	-0.19396074
51	0x3e15ffa4	0.146483
52	0xbdc786c9	-0.09742505
53	0x3c264716	0.010148784
54	0x3c18a72c	0.009317201
55	0xbd1d6c35	-0.038433272
56	0xbd62be27	-0.055357125
57	0xbc5df415	-0.013546963
58	0xbc8d491e	-0.017246779
59	0xbd7477e9	-0.059684668
60	0xbe322c91	-0.17399813
61	0x3d89ce6b	0.06728824
62	0xbe6bb164	-0.23016888
63	0x3de41236	0.11136286
64	0x3e2ffd58	0.17186487
65	0x3e80e106	0.2517168
66	0x3ddd6119	0.108095355
67	0xbdd69c0e	-0.10478984
68	0xbd5e06d6	-0.054205738
69	0x3dbb2bf4	0.09139243
70	0x3db8d13b	0.090242825
71	0x3e346d15	0.17619736
72	0xbebcc14d	-0.36866227
73	0x3de2c92d	0.110735275
74	0xbd097230	-0.033556163
75	0x3de1953f	0.110147946
76	0xbdb58950	-0.08864081
77	0xbd800e17	-0.062526874
78	0xbe016c41	-0.12638952
79	0x3e30b592	0.17256764
80	0xbd27841d	-0.040897477
81	0x3cd23e1d	0.025664384
82	0xbd852118	-0.06500453
83	0xbe7b572c	-0.24544972
84	0x3d1870b4	0.037216857
85	0xbe64e29a	-0.22352067
86	0x3d01a337	0.031649794
87	0x3dd511ce	0.104037866
88	0x3ddd324f	0.10800611
89	0x3b927b37	0.0044702548
90	0xbd49a07d	-0.04922532
91	0xbcdfa5a2	-0.02730066
92	0xbd2ba4db	-0.041905265
93	0xbed3403a	-0.41259938
94	0x3dcd7939	0.10032887
95	0xbe2e580c	-0.17025775
96	0x3e2a696e	0.1664178
97	0xbd4dd657	-0.05025324
98	0xbb814e39	-0.0039460924
99	0x3e3e3f0b	0.18578736
100	0x3d5b878d	0.05359607
101	0xbe37fbc5	-0.17967136
102	0xbd9d9424	-0.07694271
103	0x3daed2a5	0.08536271
104	0xbdf7a5f6	-0.120922014
105	0xbddf6bdd	-0.10909245
106	0x3d9407e2	0.07228066
107	0xbdb82db8	-0.08993095
108	0x3e4f138a	0.20222297
109	0xbd0907b7	-0.033454623
110	0x3e2c1270	0.16803908
111	0x3bb1e282	0.005428613
112	0xbd61da26	-0.055139683
113	0xbdd8c005	-0.105835
114	0xbd6b3879	-0.057426903
115	0x3e686201	0.22693636
116	0x3e85b1ad	0.26112118
117	0xbddd2617	-0.10798281
118	0xbe5c6cd5	-0.21525891
119	0xbd942175	-0.07232944
120	0x3e55fcd7	0.20897232
121	0xbd9a1ab6	-0.07524626
122	0x3c9f1c6f	0.019422738
123	0xbd675b20	-0.056483388
124	0x3d85aab7	0.06526702
125	0x3d4aca84	0.04950954
126	0x3e569d25	0.20958383
127	0xbb7cab63	-0.0038554303
128	0xbd07881e	-0.033088796
129	0x3da020e6	0.07818775
130	0x3dd9a67a	0.10627456
131	0xbdc51007	-0.096221976
132	0xbe07328f	-0.1320288
133	0x3e16d43e	0.14729401
134	0x3ded7d1e	0.1159613
135	0xbd5dbf28	-0.05413738
136	0xbdfcf554	-0.1235148
137	0xbe8a16f0	-0.26970625
138	0xbcb586db	-0.02215903
139	0xbde5c605	-0.1121941
140	0x3e7c753d	0.24654098
141	0x3e3a97c5	0.18221958
142	0x3d311ec3	0.043242227
143	0x3d9e2871	0.07722557
144	0xbb75d75d	-0.00375124
145	0xbd4ef156	-0.050523125
146	0xbd536599	-0.051610563
147	0xbdccb048	-0.099945605
148	0xbe34bdc5	-0.17650516
149	0xbca8a02d	-0.02058419
150	0xbd88052e	-0.06641613
151	0x3e0d4a61	0.13797905
152	0xbdc2a5e9	-0.09504301
153	0x3e8fea29	0.28108338
154	0x3de4b247	0.11166816
155	0x3d951419	0.07279224
156	0xbebf9664	-0.37419426
157	0xbb92e4e7	-0.0044828537
158	0x3c2d5aea	0.010580758
159	0xbd841906	-0.06450085
160	0x3de2830c	0.110601515
161	0xbe8dbb1e	-0.27681822
162	0xbe239f8d	-0.15978833
163	0xbdd0ed1e	-0.102014765
164	0x3c361e48	0.011115618
165	0x3e956889	0.29181316
166	0x3d96782d	0.073471405
167	0x3c957572	0.018244479
168	0xbd3f0603	-0.046636593
169	0x3e616e0b	0.22014634
170	0x3e24fec7	0.16112815
171	0x3dcb3033	0.09921303
172	0xbdd6c06a	-0.10485919
173	0x3c816cae	0.015798893
174	0xbd83c7e7	-0.06434613
175	0x3dbed263	0.09317472
176	0xbdd199ea	-0.10234435
177	0x3e4e8591	0.20168139
178	0x3d467dd9	0.04845986
179	0x3e5f3648	0.2179805
180	0xbd98a556	-0.0745341
181	0x3cfa2f27	0.030540062
182	0xbd1f8f56	-0.038955055
183	0xbd8eb532	-0.06968154
184	0x3d7243a3	0.059146535
185	0xbe132c42	-0.14372352
186	0x3c2055b6	0.00978606
187	0xbd34400a	-0.044006385
188	0x3db26c25	0.08712033
189	0xbd3e9d78	-0.046536893
190	0xbcceefb3	-0.025260782
191	0x3df6d619	0.12052555
192	0xbd911920	-0.0708487
193	0xbd3a7e76	-0.04553076
194	0x3e78d969	0.24301685
195	0x3e6d66a8	0.23183692
196	0xbadad123	-0.0016694408
197	0xbceb3abd	-0.028714532
198	0x3d2372f7	0.03990456
199	0xbe18bb6d	-0.14915247
200	0xbdcf0907	-0.10109144
201	0x3dd757d9	0.105148025
202	0x3e90977e	0.2824058
203	0xbd218db3	-0.039441776
204	0x3e2aac95	0.16667397
205	0x3d2787de	0.040901057
206	0xbe2b0f13	-0.16704969
207	0xbd0bf8cc	-0.034172818
208	0x3d633277	0.05546805
209	0x3e49d77e	0.1971111
210	0x3d3067c7	0.04306772
211	0xbde4fe8b	-0.11181363
212	0xbda4e287	-0.08051019
213	0x3d2b43d1	0.04181272
214	0xbdebde08	-0.115169585
215	0x3d425821	0.047447328
216	0xbdebdca3	-0.115166925
217	0xbe1f2784	-0.15542418
218	0xbd1dbea8	-0.038511902
219	0xbd108fbe	-0.035293333
220	0x3e45b53e	0.1930742
221	0x3e9c91df	0.3058004
222	0xbdece0bd	-0.11566303
223	0x3c96a85c	0.018390827
224	0xbd2f5bfe	-0.04281234
225	0xbe1634a0	-0.14668512
226	0x3c32d997	0.010916135
227	0xbe21642e	-0.15760872
228	0xbca35fa0	-0.019943058
229	0xbdb3591f	-0.08757233
230	0x3e4696de	0.19393489
231	0xbd4d99fe	-0.050195687
232	0x3e085c19	0.13316382
233	0x3cddf63e	0.027094956
234	0xbd9f280e	-0.07771312
235	0xbde4c458	-0.11170262
236	0x3dbe2c31	0.092857726
237	0xbde9ff72	-0.114256755
238	0x3d687a6c	0.056757376
239	0x3d4b5c77	0.04964873
240	0x3dd52582	0.10407545
241	0xbd98be0e	-0.07458125
242	0xbdf45225	-0.1192973
243	0x3e02b0bc	0.12762731
244	0x3bbafced	0.0057064206
245	0xbd83e2d8	-0.064397514
246	0x3d39a36f	0.045321878
247	0x3eaef1bf	0.34168813
248	0xbd37829a	-0.044802286
249	0xbe5b2d1c	-0.21403927
250	0xbe29203a	-0.165162
251	0x3ddd44a8	0.10804111
252	0x3da88dd2	0.08230175
253	0xbe3f2769	-0.18667378
254	0xbd01f70d	-0.031729747
255	0xbcc0a1ad	-0.023514593

fc3.bias f4 [10]
0	0xbdd60f7a	-0.10452171
1	0xbeffd208	-0.4996493
2	0x3e0b20e3	0.13586764
3	0x3eaf5265	0.3424255
4	0x3f176969	0.5914522
5	0xbe3273c5	-0.17426975
6	0x3dab63a2	0.08368613
7	0xbe44c01f	-0.19213913
8	0x3ef13568	0.47111058
9	0xbe9175b7	-0.28410122
