tutorial/cifar_net.pth (torch_old, 249602 bytes, 10 tensors)

conv1.weight f4 [6, 3, 5, 5]
0	0xbd860f4e	-0.06545888
1	0x3d6f7bad	0.058467556
2	0xbd036518	-0.032078832
3	0x3d0efe74	0.034910634
4	0x3e480900	0.19534683
5	0xbd9fa1ab	-0.077945076
6	0xbe74ed05	-0.23918541
7	0xbe5eb175	-0.21747382
8	0xbe529047	-0.2056285
9	0xbd08da4a	-0.0334113
10	0xbebe29c7	-0.3714125
11	0xbe727d0a	-0.23680511
12	0xbe2f7d9e	-0.17137763
13	0xbdee3165	-0.11630515
14	0xbdb46b5c	-0.0880954
15	0xbe9841f0	-0.29737806
16	0xbe507dd1	-0.20360495
17	0xbe783bc7	-0.24241553
18	0xbe245087	-0.16046344
19	0xbd2beaf9	-0.041972134
20	0xbeeefd4f	-0.46677634
21	0xbe3b7a17	-0.18308292
22	0xbdadf071	-0.08493126
23	0xbd766c14	-0.060161665
24	0xbd306c79	-0.043072198
25	0xbe317aad	-0.17331953
26	0x3cfcb675	0.030848721
27	0xbdf7e445	-0.12104086
28	0xbe27c6d9	-0.16384448
29	0x3d3b9d45	0.04580428
30	0xbe15a2d4	-0.14612895
31	0x3dd77b07	0.105215125
32	0xbcea4879	-0.02859901
33	0xbe0001d7	-0.12500702
34	0x3dbbb0c4	0.09164575
35	0xbdfc96f0	-0.123334765
36	0x3e81a107	0.25318167
37	0xbcedbc82	-0.029020552
38	0x3c71cd02	0.01475835
39	0xbdc6ed5b	-0.09713241
40	0xbd940173	-0.07226839
41	0x3ddab3c7	0.10678821
42	0x3db1ec03	0.08687594
43	0x3de81aaf	0.113332145
44	0xbde86a1a	-0.11348362
45	0xbedcf205	-0.43153396
46	0x3e5b40d6	0.21411452
47	0x3d6961cf	0.056978043
48	0xbd0a641d	-0.03378688
49	0xbe8ceb42	-0.27523237
50	0x3d4e0f06	0.050307296
51	0x3ea982e7	0.33107683
52	0x3e317f33	0.17333679
53	0xbd860747	-0.06544357
54	0xbe80654c	-0.25077283
55	0x3eca18d9	0.39472082
56	0x3f27c17a	0.65529597
57	0x3f052ff1	0.5202628
58	0x3e375d64	0.1790672
59	0x3dd65d2f	0.10466992
60	0x3f085a93	0.53263205
61	0x3f49add5	0.7878087
62	0x3f0ffb34	0.5624268
63	0x3e4f2c4a	0.20231739
64	0x3c8c4fbe	0.017127868
65	0x3e8e7183	0.27820978
66	0x3f263841	0.64929587
67	0x3efd78a5	0.49506107
68	0x3e0b74f4	0.13618833
69	0xbe0e0920	-0.13870668
70	0x3c1314b9	0.008977109
71	0x3edb763a	0.42863637
72	0x3edd3473	0.43204078
73	0xbcd2090d	-0.025639081
74	0xbeec6008	-0.46167016
75	0x3e93bcaf	0.28854892
76	0x3ef0e6d5	0.4705111
77	0x3f047087	0.51734203
78	0x3f1aa39d	0.60405904
79	0x3ed67e19	0.4189308
80	0x3ec7bc8e	0.39011043
81	0x3ee83040	0.45349312
82	0x3f2bd6b1	0.6712447
83	0x3ee4d996	0.44697255
84	0x3e71b856	0.23605475
85	0x3e3a402d	0.18188544
86	0x3eba1f98	0.3635223
87	0x3ede6e7f	0.43443677
88	0x3dc64dde	0.09682821
89	0xbd36b18a	-0.04460291
90	0x3d02dec6	0.031950735
91	0x3e1c0718	0.15237081
92	0x3e8c7597	0.27433464
93	0xbe960ece	-0.2930817
94	0xbe120ece	-0.1426346
95	0xbe91c90e	-0.28473705
96	0xbe3cb429	-0.184281
97	0xbe71d320	-0.23615694
98	0xbf3e4dd0	-0.7433748
99	0xbec5b73f	-0.38616368
100	0xbeb6f8e2	-0.35736758
101	0xbf00dfa1	-0.5034123
102	0xbeccae8b	-0.39976916
103	0xbeb8d2a4	-0.36098206
104	0xbe5aa1c4	-0.21350771
105	0xbe4eb248	-0.20185196
106	0xbed6b805	-0.4193727
107	0xbf1f9641	-0.62338644
108	0xbf19e147	-0.6010937
109	0xbf3a9778	-0.7288737
110	0xbdaf784e	-0.08567868
111	0xbe8a0532	-0.2695709
112	0xbe9fc6f8	-0.3120649
113	0xbf12053e	-0.5703925
114	0xbf28f5f6	-0.66000307
115	0x3dd70e57	0.10500782
116	0x3d8c36d7	0.06846397
117	0x3c9b516e	0.018959727
118	0xbf189ceb	-0.5961444
119	0xbecdf0e0	-0.40222836
120	0x3e205290	0.15656495
121	0x3e15f045	0.14642437
122	0x3c6b4848	0.014360495
123	0xbef78333	-0.48342285
124	0xbe47013c	-0.19434065
125	0x3e162e3e	0.14666077
126	0x3c367063	0.0111351935
127	0xbdc8552f	-0.097818725
128	0x3d5c4c51	0.05378372
129	0x3eb6f5fb	0.35734543
130	0x3e77f4db	0.24214499
131	0xbd5f4a5a	-0.054514267
132	0xbeaf4f99	-0.34240416
133	0xbea861bb	-0.32887062
134	0xbd5eec7e	-0.054424755
135	0x3ee51a24	0.44746506
136	0x3dd77e31	0.10522116
137	0xbe094848	-0.1340648
138	0xbeaafd27	-0.33396265
139	0xbea5955c	-0.32340515
140	0x3f12369a	0.57114565
141	0x3e9afb61	0.30269912
142	0x3ea4cf44	0.3218938
143	0xbe9400dd	-0.2890691
144	0xbdeab8aa	-0.11461003
145	0x3f0eebdb	0.55828637
146	0x3eab51f2	0.33460957
147	0x3eb7df09	0.3591235
148	0xbe70b8b0	-0.23507953
149	0xbdeba7bb	-0.115066014
150	0xbebfbffe	-0.37451166
151	0xbe8e8cf2	-0.27841908
152	0x3e9460a3	0.28979978
153	0xbf21f615	-0.63266116
154	0x3e6dffb1	0.2324207
155	0xbed8b88d	-0.423283
156	0x3ed298e3	0.41132268
157	0x3f3a0d91	0.7267695
158	0xbf9dd01f	-1.2329139
159	0xbe352514	-0.17689925
160	0x3e94e55d	0.2908124
161	0x3e581591	0.21101977
162	0xbc92af76	-0.017905932
163	0xbf421734	-0.75816655
164	0xbed9b3c3	-0.4251996
165	0x3f0efec3	0.55857486
166	0xbf067377	-0.52519935
167	0xbed4a35c	-0.41530883
168	0x3ee44f75	0.4459187
169	0xbe74facb	-0.23923795
170	0x3df427c8	0.1192165
171	0xbeafd2b3	-0.34340438
172	0xbd0d800d	-0.034545947
173	0x3f082f70	0.53197384
174	0xbb02386d	-0.0019870058
175	0xbd957136	-0.07296984
176	0x3e58449a	0.2111992
177	0x3f3a309b	0.72730416
178	0xbeae2765	-0.3401443
179	0x3e534513	0.20631818
180	0x3b392425	0.0028250304
181	0x3f30069c	0.68760085
182	0x3fa093e8	1.2545137
183	0xbf718778	-0.94347334
184	0x3daa44ef	0.08313929
185	0x3f07aff1	0.5300284
186	0x3f2c07ba	0.6719929
187	0x3e85ed48	0.26157594
188	0xbf130fc7	-0.5744595
189	0xbe2825eb	-0.16420715
190	0x3f6b809c	0.9199312
191	0xbe7c6603	-0.2464829
192	0xbdd95394	-0.106116444
193	0x3f04aae5	0.51823264
194	0xbeabf295	-0.33583513
195	0x3ea112cf	0.31459662
196	0xbe21a1ee	-0.15784428
197	0xbcba578a	-0.02274682
198	0x3ebafb5c	0.36519897
199	0xbe35f1b2	-0.1776798
200	0xbf40fcde	-0.75385845
201	0xbf100e4a	-0.56271803
202	0x3e58518f	0.21124862
203	0xbf08d765	-0.53453666
204	0x3ebf1dea	0.3732751
205	0xbef54114	-0.47901213
206	0x3de15d34	0.11004105
207	0x3efc57f8	0.49285865
208	0xbf83da65	-1.0301024
209	0x3e3c786b	0.18405311
210	0xbc26ac9f	-0.010172992
211	0xbc30235e	-0.01075062
212	0x3ce15ccc	0.02751007
213	0xbef2c3c8	-0.47414994
214	0xbdf4dd39	-0.119562574
215	0x3eb49898	0.3527267
216	0xbef01111	-0.4688802
217	0xbead5200	-0.33851624
218	0x3f11d2c2	0.56962216
219	0xbe9aad23	-0.30210218
220	0xbddf6450	-0.10907805
221	0xbe8fd579	-0.28092554
222	0x3c9e2915	0.019306699
223	0x3f0bbbb4	0.5458329
224	0xbddee350	-0.108832
225	0x3e2dcf21	0.16973545
226	0xbd1a2bbb	-0.03763936
227	0x3e0c0cc4	0.13676745
228	0x3e2b5c3b	0.16734402
229	0x3e650581	0.22365381
230	0x3f0840b4	0.5322373
231	0x3f55616a	0.8335177
232	0x3f82c175	1.0215288
233	0x3f534416	0.82525766
234	0x3e9aa713	0.30205593
235	0xbf02aeb3	-0.5104782
236	0xbeebd5c4	-0.46061528
237	0xbf1bf5d4	-0.6092198
238	0xbf046f5d	-0.51732427
239	0xbf19f4f4	-0.60139394
240	0xbf279e4b	-0.6547591
241	0xbf531005	-0.8244632
242	0xbf2306e8	-0.63682413
243	0xbf2ea3cb	-0.6821868
244	0xbec2c674	-0.38042033
245	0xbe8f7f47	-0.28026792
246	0xbe9f87ed	-0.3115839
247	0xbea4ced2	-0.3218904
248	0xbe9f8d17	-0.3116233
249	0xbf14fbc3	-0.5819666
250	0xbd920d6d	-0.07131467
251	0xbf0d2503	-0.551346
252	0xbea309c7	-0.31843397
253	0xbe6a12cb	-0.22858731
254	0xbe6d2e99	-0.23162307
255	0x3f22fe61	0.636694

conv1.bias f4 [6]
0	0xbe83533c	-0.2564944
1	0xbfb2cd5d	-1.3968922
2	0xbf079e8a	-0.52976286
3	0xbfae35bb	-1.3610147
4	0xbfacc566	-1.3497741
5	0xbfcb7af6	-1.58969

conv2.weight f4 [16, 6, 5, 5]
0	0xbec90df1	-0.3926845
1	0xbefc1a00	-0.49238586
2	0xbef5cbc6	-0.4800703
3	0xbe436fef	-0.19085668
4	0x3eb5ec7d	0.3553199
5	0xbf13090e	-0.5743569
6	0xbf0257a2	-0.5091497
7	0xbef72a0a	-0.4827426
8	0xbe0b51e0	-0.13605452
9	0x3f2202de	0.63285625
10	0xbf051adb	-0.51994103
11	0xbf000393	-0.50005454
12	0xbe715a63	-0.23569636
13	0x3c27fca7	0.010253108
14	0x3f0f63da	0.56011736
15	0xbf0fdc1a	-0.56195223
16	0xbefa7836	-0.4891984
17	0xbe16a07d	-0.14709659
18	0x3e715edb	0.2357134
19	0x3eb35052	0.35022217
20	0xbef36243	-0.47535905
21	0xbee60f18	-0.4493339
22	0x3d3a3acc	0.04546623
23	0x3ed5e460	0.417758
24	0x3f06dc09	0.52679497
25	0xbd474cd3	-0.04865725
26	0x3e51f273	0.20502643
27	0x3d057e72	0.03259129
28	0xbdf70fb1	-0.1206354
29	0xbe9dff4d	-0.30858842
30	0x3d51c50d	0.051213313
31	0x3db13045	0.08651785
32	0xb9ebe462	-0.0004499285
33	0xbe7ebc2c	-0.2487647
34	0xbeb03bc7	-0.34420606
35	0x3dac77d7	0.08421295
36	0xbdb373e5	-0.087623395
37	0xbdb6408a	-0.088990286
38	0xbe8dade4	-0.2767173
39	0xbe5d9319	-0.21638145
40	0x3d65c33c	0.056094393
41	0xbda098c3	-0.07841637
42	0xbe6e68ad	-0.23282118
43	0xbd8d0f26	-0.06887655
44	0x3e289792	0.1646407
45	0xbe006529	-0.1253859
46	0xbeed8ff2	-0.46398884
47	0xbde950aa	-0.113923386
48	0x3d997f2f	0.074949615
49	0x3b7b609c	0.0038357144
50	0xbcca0f78	-0.02466558
51	0x3cd0d997	0.02549438
52	0xbca50a7b	-0.020146599
53	0xbdd6f1b0	-0.10495317
54	0xbe92687b	-0.28595337
55	0xbba8a545	-0.005146655
56	0xbd517b6b	-0.05114309
57	0xbda061f7	-0.07831185
58	0xbe40342e	-0.18769905
59	0xbe65dde2	-0.22447923
60	0x3c4cd848	0.012502737
61	0x3d87adf0	0.06624973
62	0xbe108480	-0.14113045
63	0xbe62c4de	-0.22145411
64	0xbe143522	-0.14473394
65	0xbcb4653e	-0.022020932
66	0xbe0e4456	-0.13893256
67	0xbd177439	-0.036976073
68	0x3d001e5b	0.03127895
69	0x3da4643d	0.080269314
70	0xbdf027b4	-0.11726323
71	0xbe2c60a4	-0.1683374
72	0xbde91dd9	-0.11382646
73	0x3db3eec2	0.08785774
74	0xbd5afa53	-0.053461384
75	0x3e0f898f	0.14017318
76	0xbc422995	-0.011850734
77	0xbe1233eb	-0.14277618
78	0xbe076ad7	-0.1322435
79	0x3cf87793	0.030330455
80	0xbdfc25dd	-0.12311909
81	0xbd3d3dd0	-0.046201527
82	0xbd7257ca	-0.059165753
83	0xbd5bd4f3	-0.05366988
84	0x3e0a1851	0.13485838
85	0xbe675495	-0.22590859
86	0xbe72af71	-0.23699738
87	0xbd6ace8b	-0.05732588
88	0xbd3ca3fa	-0.046054818
89	0x3e0bf7bf	0.13668726
90	0xbdb111d7	-0.08645981
91	0xbe043086	-0.12909135
92	0xbda29734	-0.07938996
93	0xbd8ad73c	-0.06779334
94	0xbd791291	-0.060808722
95	0xbbaec5c3	-0.0053336336
96	0xbdeb9ef7	-0.115049295
97	0xbe00a802	-0.1256409
98	0xbdf1d437	-0.11808055
99	0xbcaf0c77	-0.021368248
100	0xbe8d854f	-0.2764077
101	0xbe9446f9	-0.28960398
102	0xbdab5db6	-0.08367483
103	0x3e81287d	0.25226203
104	0x3e235de6	0.15953788
105	0xbe82e8a9	-0.2556813
106	0xbe560e82	-0.20903972
107	0xbdb37833	-0.087631606
108	0x3debd0b5	0.11514417
109	0x3d58485c	0.052803382
110	0xbe0200cf	-0.12695621
111	0xbe1285d9	-0.14308871
112	0xbd001329	-0.031268273
113	0xbdf903c2	-0.1215892
114	0xbde212ab	-0.11038717
115	0xbd2853f2	-0.04109568
116	0xbd41e544	-0.047337785
117	0xbdc6fcf5	-0.097162165
118	0xbdcc607e	-0.09979342
119	0x3c9008a9	0.017582254
120	0xbde2107d	-0.11038301
121	0x3d9c6296	0.07635991
122	0x3d63b8be	0.055596106
123	0x3d7b5ee8	0.061369807
124	0x3ded89cc	0.11598548
125	0x3e6e025f	0.23243092
126	0x3d46baab	0.048517864
127	0xbd7bdc8f	-0.061489638
128	0xbe610efc	-0.21978372
129	0xbe4be15f	-0.19910191
130	0x3daca7de	0.084304556
131	0x3cdb198c	0.02674558
132	0xbced95c0	-0.02900207
133	0xbe43e7d6	-0.19131407
134	0xbe1ea75d	-0.15493532
135	0x3e321afc	0.17393106
136	0x3d68194a	0.056664743
137	0xbe317a1d	-0.17331739
138	0xbe3b1bcc	-0.18272322
139	0xbcfd8e21	-0.030951561
140	0x3e24e56a	0.1610314
141	0x3d7ba718	0.06143865
142	0xbe554362	-0.20826486
143	0xbe38eada	-0.18058339
144	0xbe0bdb18	-0.13657796
145	0x3e206eea	0.1566731
146	0xbd15d072	-0.036575742
147	0xbe3cf7af	-0.18453859
148	0xbe726249	-0.23670305
149	0xbe18563a	-0.14876643
150	0x3eaf1a5c	0.34199798
151	0xbe27b16c	-0.16376275
152	0xbea1707c	-0.3153113
153	0xbe4fe151	-0.20300795
154	0xbe6b6258	-0.22986734
155	0x3e99d7c4	0.3004743
156	0x3c852aa7	0.01625569
157	0xbe740b73	-0.23832493
158	0xbe87de07	-0.2653658
159	0xbe086f9b	-0.13323824
160	0x3d3f3d1a	0.04668913
161	0x3e0030cb	0.12518613
162	0xbe52f927	-0.20602857
163	0xbe841c63	-0.25802907
164	0xbd0932a8	-0.033495575
165	0x3cfc673d	0.030810947
166	0x3dea147d	0.11429689
167	0x3c913a7b	0.017728081
168	0xbe26c224	-0.16284996
169	0x3e313bb5	0.17307933
170	0x3e34c31b	0.17652552
171	0x3e8968b6	0.268377
172	0x3e940d56	0.28916425
173	0xbe6a1c77	-0.22862421
174	0xbd38b8ad	-0.045097996
175	0x3e691fd2	0.22766045
176	0xbe263bdb	-0.1623377
177	0xbe105576	-0.14095101
178	0x3e43b932	0.19113615
179	0xbe16c2af	-0.14722703
180	0x3e70419b	0.23462527
181	0xbe29a1c4	-0.16565615
182	0xbedf98ab	-0.43671164
183	0x3d9dcff5	0.0770568
184	0x3e69e612	0.22841671
185	0x3d64e677	0.05588385
186	0x3e70602b	0.23474185
187	0x3dc87ff3	0.097900294
188	0xbeaccf5d	-0.33751956
189	0xbd22f4b3	-0.039784145
190	0xbd90dc02	-0.07073213
191	0x3e1e8e06	0.15483865
192	0x3e719e36	0.23595509
193	0xbe450da6	-0.19243488
194	0xbe470e0c	-0.19438952
195	0x3de3af48	0.111174166
196	0xbd675c4b	-0.0564845
197	0x3ea10cc9	0.31455067
198	0xbd1cc1dc	-0.038270816
199	0xbe83c540	-0.25736427
200	0xbde06270	-0.109562755
201	0x3ddbfc0f	0.10741436
202	0x3ed4b96f	0.41547725
203	0x3e530c04	0.20610052
204	0xbde1bfcb	-0.1102291
205	0xbf00528b	-0.5012595
206	0xbf054b94	-0.5206845
207	0xbe440fdc	-0.19146675
208	0x3ebb528d	0.3658642
209	0x3ec1cb5e	0.3785047
210	0xbed53be5	-0.41647258
211	0xbe79b17a	-0.24384108
212	0xbf15c5bf	-0.5850486
213	0xbe3959ea	-0.18100706
214	0x3e84763e	0.25871462
215	0xbe42db2d	-0.19028921
216	0x3e30dd9f	0.17272042
217	0xbe29a351	-0.16566207
218	0xbebbebfd	-0.36703482
219	0x3b9cbe8d	0.0047834576
220	0x3d569d52	0.052396126
221	0x3ea11876	0.31463975
222	0x3eec6502	0.46170813
223	0xbe689635	-0.2271355
224	0xbe327831	-0.17428662
225	0x3ddae527	0.106882386
226	0xbd786562	-0.06064356
227	0xbe15cd67	-0.14629136
228	0xbdee7cd2	-0.11644901
229	0x3e0994fa	0.13435736
230	0x3cb876a3	0.022517508
231	0xbe2d8319	-0.16944541
232	0xbe9c73de	-0.3055715
233	0xbe66372c	-0.22481984
234	0x3c1f9dd9	0.009742224
235	0xbe28be8f	-0.16478942
236	0xbe2f717e	-0.17133138
237	0xbe7331fe	-0.2374954
238	0xbe9c512e	-0.30530685
239	0xbe561722	-0.20907262
240	0x3db615b1	0.08890856
241	0xbcbc2234	-0.022965528
242	0xbecaa4c8	-0.39578843
243	0xbea36374	-0.31911814
244	0xbe0c9713	-0.13729505
245	0x3d496e83	0.049177658
246	0xbe22be83	-0.15892987
247	0xbe5714c8	-0.21004021
248	0xbe90e02c	-0.2829603
249	0xbe8562de	-0.26051992
250	0xbd5c8a70	-0.05384296
251	0xbd85dea6	-0.065366074
252	0xbca61bfa	-0.020277012
253	0x3e7d5b5a	0.24741879
254	0x3e3f35c1	0.18672849
255	0xbe05443d	-0.13014312

conv2.bias f4 [16]
0	0x3eee412f	0.46534106
1	0x3e1e8d28	0.15483534
2	0x3e2f0eaa	0.17095438
3	0x4006a93f	2.10408
4	0xbfad8bd0	-1.3558292
5	0xbdf312fc	-0.11868855
6	0xbda7e02d	-0.08197055
7	0xbe971678	-0.2950933
8	0x3e890291	0.2675977
9	0x4013de13	2.3104293
10	0xbf04f8ad	-0.5194195
11	0x3f3ac870	0.72962093
12	0xbf04276e	-0.51622665
13	0xbed58ca8	-0.41708875
14	0xbf8bea16	-1.0930812
15	0x3bb59c46	0.005542311

fc1.weight f4 [120, 400]
0	0x3d518866	0.05115547
1	0xbd05953e	-0.03261303
2	0x3c2bb14f	0.010479285
3	0xbdd371cf	-0.10324442
4	0xbe3b38a6	-0.18283328
5	0xbd16a955	-0.03678258
6	0xbdb2bc6d	-0.087273456
7	0xbdbfebe2	-0.09371163
8	0xbdd7655c	-0.1051738
9	0xbce94782	-0.02847648
10	0xbdfb1a8c	-0.12260923
11	0xbd00c201	-0.031435017
12	0xbe387fa2	-0.18017438
13	0xbdea956a	-0.1145428
14	0xbcc0c334	-0.02353058
15	0x3b6dc3a1	0.0036279934
16	0xbd83411e	-0.064089045
17	0xbe43d9ba	-0.19126025
18	0xbe26bced	-0.16283007
19	0xbdd554be	-0.10416554
20	0xbe48c993	-0.19608144
21	0xbd482928	-0.048867375
22	0xbd98902d	-0.07449374
23	0xbc86887f	-0.016422508
24	0xbd7efa56	-0.062250458
25	0x3db639e4	0.088977605
26	0x3bb7a2be	0.005604117
27	0xbd1b2e40	-0.037885904
28	0x3e083133	0.13300018
29	0x3cd0b2b9	0.025475847
30	0xb9c8ed51	-0.00038323787
31	0xbe1f7a8b	-0.1557409
32	0xbe1d6d19	-0.15373649
33	0x3c12fbf0	0.008971199
34	0x3ddebc00	0.10875702
35	0x3d8a5501	0.067544945
36	0xbc37e249	-0.011223384
37	0xbd47a204	-0.048738495
38	0x3c8e634a	0.01738133
39	0x3d8f92b6	0.07010405
40	0x3d0a52df	0.03377044
41	0xbc8ffc4d	-0.017576361
42	0x3ce57b1e	0.028012808
43	0x3d30d3a6	0.043170594
44	0xba66ddce	-0.0008806855
45	0xb8e07445	-0.00010702809
46	0xbd790585	-0.06079628
47	0x3d102001	0.03518677
48	0x3d1c8340	0.038211107
49	0x3d55d6dc	0.05220686
50	0x3e1e39c6	0.15451726
51	0x3d341721	0.04396737
52	0x3e484a39	0.19559564
53	0x3db7619e	0.08954166
54	0x3e1f9235	0.15583117
55	0x3d56941e	0.05238735
56	0xbd988742	-0.074476734
57	0x3c09815a	0.008392656
58	0x3d859575	0.06522647
59	0x3e9573d0	0.2918992
60	0xbcf58442	-0.029970292
61	0xbdd968bc	-0.106156796
62	0xbe297fa3	-0.16552596
63	0x3d08885a	0.03333316
64	0x3e3bd55a	0.18343106
65	0x3e0f0810	0.1396792
66	0xbd0c2a33	-0.03421993
67	0x3c973d45	0.018461833
68	0xbd3f51e8	-0.04670897
69	0x3db6d1c3	0.089267276
70	0x3ca0f8bb	0.019649854
71	0x3e28c7e6	0.16482505
72	0x3dbc288c	0.09187421
73	0xbdc08ce2	-0.09401871
74	0x3dcbb415	0.09946457
75	0x3cae505a	0.021278549
76	0x3dfdc022	0.12390162
77	0x3db66543	0.08906033
78	0x3d2df5e0	0.042470813
79	0x3e06a9b3	0.13150673
80	0xbcadf772	-0.021236155
81	0x3e571e19	0.21007575
82	0x3e332c17	0.17497288
83	0x3da14fa6	0.0787652
84	0x3d386c22	0.045025
85	0xbd3d3348	-0.046191484
86	0x3d18e09e	0.037323587
87	0x3e4f5928	0.20248854
88	0x3e08e42a	0.13368288
89	0x3de5c542	0.112192646
90	0xbd0ebb27	-0.03484645
91	0xbdd28110	-0.10278523
92	0xbd79b26a	-0.060961165
93	0xbc0ad6a6	-0.008474028
94	0x3c6ac7e9	0.014329889
95	0x3ccee322	0.02525479
96	0xbe29dbe4	-0.16587788
97	0xbe2909d1	-0.16507651
98	0xbdb94c31	-0.090477355
99	0x3db51eb0	0.08843744
100	0xbe000e59	-0.12505473
101	0xbdc6b48f	-0.097024076
102	0xbe1f307d	-0.1554584
103	0xbe31b484	-0.17354017
104	0xbdb3d415	-0.08780686
105	0xbc02692c	-0.007959645
106	0xbdc866a9	-0.09785206
107	0xbde4759d	-0.111552455
108	0xbe41631f	-0.18885468
109	0xbd1069d4	-0.035257176
110	0x3e3a126f	0.18171094
111	0xbc6f15e9	-0.014592626
112	0xbe1a9219	-0.15094794
113	0xbe24641d	-0.16053815
114	0xbc1809d0	-0.009279683
115	0x3de19c9e	0.110162005
116	0x3c49e3ae	0.0123223495
117	0x3dec197c	0.11528298
118	0x3d833565	0.064066686
119	0x3dd17c52	0.1022879
120	0x3d86f468	0.065895855
121	0xbb905192	-0.004404255
122	0x3e480b3c	0.19535536
123	0xbe027f0e	-0.1274378
124	0xbe182936	-0.1485947
125	0x3cf2f1a9	0.029656248
126	0xbd37a461	-0.0448345
127	0x3d3d6698	0.04624042
128	0x3dc0c34e	0.094122514
129	0xbb7d60d0	-0.003866244
130	0x3cd14470	0.025545329
131	0x3aac6820	0.001315359
132	0xbb7af3ce	-0.0038292292
133	0x3c1dc19d	0.009628681
134	0x3ba68f0b	0.00508297
135	0x3cfbfe57	0.030760927
136	0x3e14f9e1	0.14548446
137	0x3d22bc7e	0.03973054
138	0xbd68a0b6	-0.05679389
139	0xbccd2b0e	-0.025044944
140	0x3c47f3ec	0.012204152
141	0x3c0bda10	0.008535877
142	0x3db7208a	0.08941753
143	0xbd39927d	-0.045305718
144	0x3c6c3ea0	0.014419228
145	0xbdc414c2	-0.09574272
146	0x3d5bd902	0.05367375
147	0x3de7f13b	0.11325308
148	0xbb7fce85	-0.0039033007
149	0xbdeb5c8e	-0.11492263
150	0x3e3ac82a	0.18240419
151	0x3df14f15	0.11782662
152	0xbdee5ddd	-0.11638997
153	0x3cc79b95	0.02436618
154	0x3e0ef7e7	0.13961755
155	0x3e4918cb	0.19638364
156	0x3da6ff6b	0.08154186
157	0xbe3c4fae	-0.1838977
158	0xbe14a007	-0.1451417
159	0x3d10a665	0.035314936
160	0x3e617450	0.22017026
161	0xbc5284ee	-0.012849076
162	0xbe96b461	-0.29434493
163	0xbe30b35d	-0.17255922
164	0xbe17f773	-0.14840488
165	0x3e257798	0.16158903
166	0x3e757249	0.23969378
167	0xbd870c02	-0.06594087
168	0x3d1154bd	0.035481203
169	0xba51b1c4	-0.00079992064
170	0x3e8ff4df	0.2811651
171	0x3c936886	0.017994177
172	0x3d13a1f2	0.036043115
173	0x3d28a06b	0.04116861
174	0x3e424d88	0.18974888
175	0xbbd3e388	-0.006466333
176	0x3cfdee41	0.030997397
177	0x3cd422c5	0.025895486
178	0xbd6eb975	-0.058282334
179	0xbd247e67	-0.04015961
180	0xbd961870	-0.0732888
181	0xbd06d2b0	-0.03291577
182	0x3c6143b9	0.0137490565
183	0x3b019db0	0.0019777827
184	0x3c7d6203	0.015465262
185	0xbc7e847a	-0.015534515
186	0x3cef01bb	0.02917563
187	0x3d361705	0.044455547
188	0x3d23349e	0.0398451
189	0x3d0496f8	0.032370538
190	0xbd2e5053	-0.042557072
191	0xbd38a058	-0.04507479
192	0x3d5a05b5	0.0532281
193	0x3dfc7644	0.12327245
194	0x3d130eea	0.035902895
195	0xbd4b5fcf	-0.049651917
196	0xbb465ba4	-0.0030267024
197	0xbc9dfb45	-0.019284854
198	0xbd2ee0d7	-0.042694893
199	0x3d23bf17	0.03997716
200	0xbd9c49a2	-0.07631232
201	0xbdbe9dcb	-0.0930744
202	0x3e25fa12	0.16208676
203	0x3d9986eb	0.07496437
204	0xbe0a5fbe	-0.13513085
205	0xbc7d6f8c	-0.015468489
206	0xbde6e5b8	-0.11274284
207	0xbe132f41	-0.14373495
208	0xbd193f3b	-0.037413817
209	0xbd914137	-0.07092517
210	0xbcb575f2	-0.022150967
211	0xbe2ae66c	-0.16689461
212	0xbe0cc06d	-0.1374528
213	0xbe02040d	-0.12696858
214	0xbcbd5f25	-0.023116658
215	0xbdaaf6b7	-0.08347838
216	0xbdcb3791	-0.09922708
217	0xbe1d0c5e	-0.15336749
218	0xbe3cd003	-0.18438725
219	0xbe2a929b	-0.16657488
220	0xb9ef1afa	-0.0004560573
221	0xbc4961ec	-0.012291413
222	0xbdecb732	-0.11558379
223	0x3d003548	0.031300813
224	0xbcb5ee0c	-0.022208236
225	0xbe0be8d1	-0.13663031
226	0xbe5b4958	-0.21414697
227	0xbe65d3a5	-0.22444017
228	0xbe488eb1	-0.19585682
229	0xbe62d80d	-0.2215273
230	0xbe2f5993	-0.17124014
231	0xbd8966c0	-0.06709051
232	0x3c796f88	0.015224345
233	0xbdd0e46f	-0.1019982
234	0xbe21976f	-0.15780424
235	0xbd5a60d3	-0.053314995
236	0xbb5e1489	-0.0033886752
237	0x3c9596c5	0.01826037
238	0xbdb390dc	-0.08767864
239	0xbe2d99e8	-0.16953242
240	0xbd81e148	-0.06341797
241	0xbd1a4b4b	-0.03766946
242	0xbdc557ed	-0.09635911
243	0xbdce85b1	-0.10084093
244	0xbdfd5ad2	-0.12370838
245	0xbd7b9bab	-0.061427753
246	0xbda1075e	-0.07862733
247	0xbd76c626	-0.060247563
248	0xbda05f98	-0.07830733
249	0xbe196fde	-0.1498408
250	0x3db02ecf	0.08602678
251	0x3e1d0ddf	0.15337323
252	0x3e1ed152	0.15509537
253	0x3df272d4	0.11838308
254	0x3d7d43c1	0.061832193
255	0xbd63143e	-0.055439226

fc1.bias f4 [120]
0	0x3e10623f	0.14099978
1	0x3ddb21fb	0.10699841
2	0x3e8b9b75	0.27267042
3	0xbe326b32	-0.17423704
4	0x3e3be63a	0.18349543
5	0x3de1be28	0.110225976
6	0x3ca4f8f5	0.020138243
7	0x3e687191	0.22699572
8	0xbc49a605	-0.012307649
9	0xbc820acb	-0.015874287
10	0xbd7b692b	-0.061379593
11	0xbdb1489f	-0.086564295
12	0xbd0e8c07	-0.03480151
13	0xbded1572	-0.11576356
14	0xbe28c74b	-0.16482274
15	0xbd00dc15	-0.031459887
16	0xbea2d6d5	-0.3180453
17	0xbd6bced2	-0.057570286
18	0x3b0ed612	0.0021795076
19	0xbd037145	-0.032090444
20	0x3c7c2f3c	0.015392121
21	0xbd4d6cb5	-0.0501525
22	0xbdd6333e	-0.104589924
23	0x3e869d63	0.26291952
24	0xbd69f964	-0.057122603
25	0x3ed83b78	0.4223287
26	0x3c2b064e	0.010438515
27	0x3d3f5858	0.04671511
28	0xbda4b5d9	-0.08042497
29	0x3d2ac26e	0.04168933
30	0x3e30c98d	0.17264386
31	0x3dcc9b86	0.09990601
32	0xbd414166	-0.04718151
33	0xbd8bd5e7	-0.06827908
34	0x3da70928	0.08156043
35	0xbe4c944d	-0.19978447
36	0x3d80cc5e	0.0628898
37	0xbd7cfbb2	-0.061763473
38	0x3e23c53e	0.1599321
39	0x3d96ba5e	0.073597655
40	0xbdd9c2ca	-0.10632856
41	0x3d960301	0.07324792
42	0xbd9643d7	-0.07337158
43	0xbce5e064	-0.0280611
44	0xbd946f51	-0.072477944
45	0xbce61265	-0.028084943
46	0xbe8ad822	-0.2711802
47	0x3de40ae0	0.11134887
48	0xbe8dff0b	-0.27733645
49	0x3dfa86f8	0.122327745
50	0x3c89de4c	0.016829632
51	0xbd23d0ec	-0.039994165
52	0xbca9a60c	-0.02070906
53	0xbdb89543	-0.090128444
54	0x3e8251c2	0.25453
55	0x3e3ffef9	0.18749608
56	0xbe167a6f	-0.14695142
57	0xbe0d4b86	-0.13798341
58	0xbd917085	-0.071015395
59	0x3d4e1384	0.05031158
60	0xbd92e0a7	-0.07171755
61	0x3dce910c	0.10086259
62	0xbbe6ad27	-0.0070396843
63	0xbaabe554	-0.001311461
64	0xbd8d4c47	-0.068993144
65	0x3c6b1fa4	0.014350805
66	0xbccd9d56	-0.025099438
67	0x3e6fece1	0.23430206
68	0x3cebbccf	0.028776554
69	0xbd24967f	-0.040182587
70	0xbe15d977	-0.14633738
71	0xbdd7ccc8	-0.10537106
72	0xbe5ef326	-0.21772441
73	0xbe0fedc3	-0.14055543
74	0xbb2c9030	-0.002633106
75	0xbd6d369c	-0.057913408
76	0x3e6bc763	0.23025279
77	0xbd7f8311	-0.062380854
78	0x3e3d7954	0.18503314
79	0x3a7427b9	0.00093137805
80	0x3bda10af	0.006654821
81	0xbe021510	-0.12703347
82	0xbd6f2892	-0.0583883
83	0xbe4099cc	-0.18808669
84	0xbccfb8d4	-0.025356688
85	0x3caecd2e	0.021338072
86	0x3e99383e	0.29925722
87	0xbd2f5082	-0.042801388
88	0xbdc27a98	-0.09496039
89	0x3c99fc32	0.018797014
90	0xbe829c77	-0.25509998
91	0xbe26cd77	-0.16289316
92	0xbcbe848c	-0.023256563
93	0xbb1b9b36	-0.0023743636
94	0xbe8c8c13	-0.27450618
95	0xbe263089	-0.16229452
96	0xbdb8a3cb	-0.09015616
97	0xbd6e04ec	-0.058110163
98	0xbdee61ec	-0.11639771
99	0x3a531ace	0.00080530054
100	0xbd16c937	-0.036812987
101	0x3d84f965	0.06492881
102	0xbd62007b	-0.05517624
103	0x3c7aca4f	0.015307023
104	0x3d4cefc0	0.05003333
105	0x3e70b7eb	0.23507659
106	0xbc077b6e	-0.008269174
107	0xbda6a64b	-0.081371866
108	0x3e668f48	0.22515595
109	0x3ec9963a	0.39372426
110	0xbc8045b9	-0.015658246
111	0xbd34764a	-0.04405812
112	0xbe8ccbf3	-0.2749935
113	0xbc575949	-0.013143846
114	0x3d2fd565	0.04292812
115	0xbd7682cc	-0.06018333
116	0xbc9417aa	-0.01807769
117	0xbdd61001	-0.10452271
118	0x3e841e56	0.25804394
119	0xbdc1d16f	-0.094637744

fc2.weight f4 [84, 120]
0	0xbc13b021	-0.00901416
1	0x3cf5bcf2	0.029997323
2	0xbdedf151	-0.11618293
3	0x3d37d977	0.044885125
4	0xbd9895c3	-0.0745044
5	0xbd8931b0	-0.0669893
6	0x3d46af31	0.04850692
7	0xbe9dad6d	-0.30796376
8	0xbd061f14	-0.032744482
9	0xbe0e6afb	-0.13907997
10	0xbcc99efe	-0.024611946
11	0x3c434575	0.011918415
12	0x3e03b638	0.1286248
13	0xbdb4aa2d	-0.08821521
14	0x3d1d5f3f	0.038420912
15	0x3d7727b8	0.060340613
16	0xbe989800	-0.29803467
17	0x3d405849	0.046959195
18	0xbdc1e3a8	-0.0946725
19	0xbddcf3a8	-0.10788661
20	0x3bb69450	0.0055718794
21	0x3ca10f22	0.019660536
22	0x3d769ca8	0.060207993
23	0x3c9961e3	0.018723434
24	0x3d119492	0.03554208
25	0x3e4c3331	0.19941403
26	0xbd2c8446	-0.042118333
27	0xbe159025	-0.14605768
28	0xbbbbac28	-0.0057273097
29	0x3decc86d	0.11561666
30	0x3d264b02	0.040598877
31	0x3e1288ea	0.14310041
32	0xbd68fda8	-0.05688253
33	0x3c2ab0da	0.010418141
34	0xbd0fe09c	-0.035126314
35	0xbdda96a1	-0.106732614
36	0xbcbd2d24	-0.023092814
37	0x3db9ff68	0.09081918
38	0x3db51864	0.08842543
39	0xbde3e2a3	-0.11127212
40	0x3d9ae6bf	0.075635426
41	0xbe594c43	-0.21220498
42	0x3d626b19	0.055277918
43	0xbc0d3ac7	-0.008619971
44	0xbe83066a	-0.2559083
45	0x3cf74da0	0.030188382
46	0x3e817286	0.25282687
47	0xbdfed652	-0.12443222
48	0xbe024e30	-0.12725139
49	0x3b2e8906	0.0026631965
50	0x3e2d8038	0.16943443
51	0x3b9725b2	0.004612648
52	0x3c1aebf1	0.009455667
53	0x3da6a612	0.08137144
54	0xbdf8e7c9	-0.121535845
55	0xbd701f73	-0.058623742
56	0xbd83eb26	-0.064413354
57	0xbe3ee00c	-0.18640155
58	0xbce1a7b9	-0.027545797
59	0xbdac41ab	-0.08410963
60	0xbe1c4081	-0.15258981
61	0xbe29e830	-0.16592479
62	0xbd95315f	-0.072848074
63	0x3cf6d3e1	0.030130329
64	0xbc518bc8	-0.012789674
65	0xbb92d101	-0.0044804816
66	0x3e0b059a	0.13576356
67	0xbd67a949	-0.056557927
68	0xbd90fc3b	-0.07079359
69	0xba4db9d3	-0.00078478194
70	0xbcafd71a	-0.021464873
71	0xbdde6604	-0.10859302
72	0xbcf781a4	-0.030213185
73	0xbe28a9cd	-0.16471024
74	0xbe3c58a9	-0.18393196
75	0x3d8979f0	0.06712711
76	0x3c8f08a4	0.017460175
77	0xbdf353e7	-0.118812375
78	0xbe4fc17c	-0.20288652
79	0xbbb99936	-0.005664016
80	0xbe52aea2	-0.2057443
81	0x3c246b62	0.010035368
82	0xbcd269d9	-0.025685238
83	0xbdf294e7	-0.11844807
84	0x3c8c757e	0.017145868
85	0xbda14a16	-0.07875459
86	0xbdd7a02a	-0.10528596
87	0xbddc0639	-0.107433744
88	0xbdf5eb5f	-0.12007784
89	0x3d153392	0.036426134
90	0xbd22e186	-0.039765857
91	0x3e0671aa	0.13129297
92	0x3d34cd60	0.044141173
93	0xbd176a5d	-0.03696667
94	0x3e04e8cb	0.12979428
95	0x3dc658cb	0.09684905
96	0xbd18678d	-0.03720813
97	0xbda28661	-0.07935787
98	0xbdfbc56e	-0.12293516
99	0xbe4c9890	-0.19980073
100	0xbdff9df9	-0.12481303
101	0xbafbe86e	-0.001921905
102	0xbe87310a	-0.264046
103	0x3e5fd3a3	0.21858077
104	0xbd8b92c0	-0.068151
105	0xbe1e2596	-0.15444025
106	0x3d621577	0.05519625
107	0x3d3d97bd	0.046287287
108	0x3c628b70	0.01382719
109	0xbe5e49a2	-0.21707776
110	0xbdb30b1f	-0.087423556
111	0x3c68eba7	0.01421634
112	0x3e0e3b6c	0.13889855
113	0x3d243e32	0.040098377
114	0x3dd27995	0.10277096
115	0x3c68b9a2	0.014204415
116	0x3e3f7ccc	0.1869995
117	0xbd58e517	-0.052952852
118	0xbc1738e7	-0.009229875
119	0xbd00d411	-0.031452242
120	0x3e39d987	0.18149386
121	0x3cdcaad9	0.026936935
122	0xbdc540ab	-0.09631475
123	0x3caea8ae	0.021320667
124	0xbd158aa7	-0.036509182
125	0xbd762c7f	-0.06010103
126	0xbd2f904f	-0.042862233
127	0x3ce0075e	0.027347263
128	0xbd92bdb1	-0.07165087
129	0xba70c26a	-0.00091842434
130	0x3cebe164	0.028793998
131	0xbcdb4e71	-0.026770802
132	0x3db5f55e	0.08884691
133	0x3da818ea	0.08207877
134	0xbd8df2e1	-0.06931091
135	0x3b95a748	0.0045670606
136	0xbd99ccfd	-0.075098015
137	0xbd883e5c	-0.06652519
138	0x3dade95a	0.08491774
139	0xbd21e134	-0.03952141
140	0xbd81f991	-0.06346429
141	0xbdeccc10	-0.11562359
142	0xbd074f2b	-0.033034485
143	0xbda69cbb	-0.08135363
144	0xbc367f81	-0.011138798
145	0xbe54714d	-0.20746346
146	0x3ca7c49e	0.020479497
147	0xbd07b42c	-0.03313081
148	0x3da1a43f	0.078926556
149	0x3dbdd5bc	0.09269282
150	0xbd86befc	-0.06579396
151	0x3e32f99d	0.17478032
152	0x3d05743c	0.032581553
153	0xbd8a9455	-0.06766573
154	0xbd8fff6f	-0.07031142
155	0x3dc0a225	0.094059266
156	0x3c9377eb	0.018001517
157	0xbc6c7985	-0.014433269
158	0x3cefc257	0.029267473
159	0x3d8dbcc5	0.069207706
160	0xbdfdc69a	-0.12391396
161	0xbd7965c0	-0.060888052
162	0xbdc7a936	-0.09749071
163	0xbe3afc50	-0.18260312
164	0x3d0c756c	0.03429167
165	0xbc4d4ceb	-0.012530546
166	0xbe07f535	-0.13277133
167	0x3cf25e77	0.02958606
168	0xbd5c33a4	-0.053760186
169	0x39b45463	0.00034395148
170	0xbda6988a	-0.08134563
171	0xbe4d78d8	-0.2006563
172	0xbb0fdb26	-0.002195069
173	0xbc66c374	-0.014084686
174	0x3d8a1745	0.067427196
175	0x3c29a717	0.010354779
176	0xbdd1ad86	-0.10238175
177	0xbc095505	-0.008382087
178	0x3c54c1cd	0.012985659
179	0x3c419a7d	0.011816618
180	0xbe03c726	-0.12868938
181	0xbd235f3c	-0.039885744
182	0x3d080823	0.033210885
183	0xbe073095	-0.13202126
184	0x3daa74e7	0.083230786
185	0xbd1dd5e8	-0.038534075
186	0xbda1a3c6	-0.078925654
187	0x3cf61a49	0.03004183
188	0xbc082644	-0.0083099045
189	0xbc653796	-0.0139903035
190	0xbdc3916b	-0.09549221
191	0x3d094a36	0.03351804
192	0x3a60da9f	0.0008577499
193	0xbd91e4c7	-0.07123714
194	0xbe132c9e	-0.14372489
195	0x3bc32683	0.0059555187
196	0x3e4ccdb9	0.20000352
197	0xbd5fa274	-0.054598287
198	0x3e52531d	0.20539518
199	0x3b084683	0.0020793981
200	0xbdd77f8a	-0.10522373
201	0xbd3fecec	-0.046856806
202	0xbcdbf4e5	-0.026850173
203	0xbd140082	-0.036133297
204	0x3ce25292	0.027627263
205	0xbe2405ac	-0.16017789
206	0xbdcabed3	-0.09899678
207	0x3dd0af90	0.10189736
208	0xbdd00eff	-0.1015911
209	0x3d9e5f06	0.07732968
210	0xbd1ef2cd	-0.03880577
211	0xbd1bd4a8	-0.0380446
212	0xbbbf9bb5	-0.005847419
213	0x3d104841	0.035225157
214	0xbe2ace41	-0.16680242
215	0xbe00fc6c	-0.12596291
216	0xbe272fbe	-0.16326806
217	0xbe0ba3ab	-0.13636653
218	0xbdbf20cc	-0.093324274
219	0xbe033353	-0.12812547
220	0x3d186a98	0.03721103
221	0xbd09d73f	-0.03365254
222	0xbde3400a	-0.11096199
223	0x3bdfc14e	0.0068284636
224	0xbcc583f2	-0.024110768
225	0xbe0cbeec	-0.13744706
226	0x3d2c9b88	0.042140514
227	0xbd4508e2	-0.048104174
228	0xbe237f8d	-0.15966626
229	0xbac9ec95	-0.001540559
230	0xbd766baf	-0.06016129
231	0xbdc984f2	-0.098398104
232	0x3d6a65b8	0.057225913
233	0xbc03fef0	-0.008056387
234	0xbea3b15b	-0.3197125
235	0xbd1c7d82	-0.03820563
236	0xbe108337	-0.14112554
237	0xbcf1443b	-0.02945148
238	0xbe24dcd8	-0.1609987
239	0x3d917e32	0.07104148
240	0x3dda443a	0.106575444
241	0xbe8c000f	-0.27343795
242	0xbc911d04	-0.017714031
243	0x3ddff862	0.10936047
244	0xbe07d21e	-0.13263747
245	0xbd3fdaae	-0.04683941
246	0xbdcc0608	-0.09962088
247	0xbe4ab36c	-0.19795007
248	0xbcedcb97	-0.029027743
249	0x3d0fe9d3	0.0351351
250	0x3da90e3d	0.08254669
251	0xbda23812	-0.07920851
252	0xbcbcb4ab	-0.023035368
253	0x3e071f6f	0.13195585
254	0xbdf69faf	-0.12042176
255	0xbded62e0	-0.115911245

fc2.bias f4 [84]
0	0x3efee78c	0.4978603
1	0x3da4f173	0.08053865
2	0xbd979a59	-0.07402486
3	0x3f339a20	0.7015705
4	0x3ec26e8d	0.3797497
5	0x3e0c6a74	0.13712484
6	0x3effca26	0.49958915
7	0xbcbfe212	-0.023423228
8	0x3e962a05	0.29328933
9	0x3f0d63fe	0.552307
10	0x3ea24d10	0.3169942
11	0x3f2034f4	0.625808
12	0x3f565d72	0.83736336
13	0x3c8d46d7	0.017245693
14	0x3d836f50	0.064177155
15	0x3f29219f	0.66066927
16	0x3eb019df	0.34394738
17	0xbc4b2f3f	-0.012401401
18	0x3e5dcd78	0.21660411
19	0x3d7bd60b	0.061483424
20	0xbdd56718	-0.10420054
21	0x3e2ebad1	0.17063452
22	0x3ef7c294	0.4839064
23	0x3d790531	0.060795967
24	0x3e83d581	0.25748828
25	0x3d8e8491	0.06958879
26	0x3ed44911	0.41461995
27	0x3ea9a1ff	0.33131406
28	0x3f14ae2d	0.5807827
29	0x3e8536e0	0.2601843
30	0x3efcf762	0.49407488
31	0x3ec76956	0.38947552
32	0x3d0d099b	0.03443299
33	0x3ebfd6fe	0.37468714
34	0x3ea35b59	0.3190563
35	0xbe1f2a6e	-0.1554353
36	0x3ed22ad9	0.41048315
37	0x3ecb6a4f	0.39729545
38	0x3e2a4d5e	0.16631076
39	0x3e63c1c4	0.22241884
40	0x3e95eebd	0.29283705
41	0xbe4eded8	-0.20202196
42	0x3cf57f3d	0.029967899
43	0x3e914977	0.28376362
44	0x3e01d8d1	0.12680365
45	0x3ed70782	0.41997916
46	0xbe0d2bb9	-0.1378621
47	0x3f587bb3	0.8456375
48	0x3eb3e5d9	0.35136297
49	0x3c908f53	0.017646467
50	0x3e6d1531	0.23152615
51	0x3d970b62	0.07375218
52	0xbd01cea1	-0.031691197
53	0xbe1357ae	-0.14388916
54	0xbddf1428	-0.108925164
55	0x3f03a307	0.51420635
56	0x3cabcd99	0.02097206
57	0xbd16ec65	-0.036846537
58	0x3d7d035e	0.06177079
59	0xbdc465f3	-0.09589758
60	0xbd96d189	-0.073641844
61	0x3dfcf649	0.12351663
62	0x3daa0941	0.08302546
63	0xbc4b40a1	-0.012405545
64	0xbd3cbe22	-0.046079762
65	0x3f118aef	0.5685262
66	0xbe13e2c8	-0.14441979
67	0x3edb9aaa	0.42891437
68	0xbe66df5c	-0.22546142
69	0x3e51c744	0.2048617
70	0x3e8b8200	0.2724762
71	0xbd4ce061	-0.050018672
72	0xbc46b53f	-0.012128173
73	0x3ecf0a8e	0.4043774
74	0x3ec38e36	0.38194436
75	0x3dae91e5	0.08523921
76	0x3e218a65	0.1577545
77	0xbde1fd33	-0.11034622
78	0xbe20a662	-0.1568847
79	0xbe16e6e6	-0.14736518
80	0x3eb4cd2a	0.35312778
81	0x3f1a6bc0	0.60320663
82	0x3f04ecb4	0.5192368
83	0xbd3def29	-0.04637066

fc3.weight f4 [10, 84]
0	0x3e5789d3	0.2104867
1	0x3e4a75a2	0.19771436
2	0x3e1849a9	0.14871849
3	0x3d7ddca6	0.061978005
4	0x3e9fa245	0.3117849
5	0x3d70c63c	0.0587828
6	0xbebbf524	-0.36710465
7	0x3e27a757	0.16372429
8	0xbd2e38c3	-0.0425346
9	0xbda39d3f	-0.07988977
10	0x3e1477bc	0.144988
11	0xbe46bb6a	-0.1940743
12	0xbe3277a2	-0.17428449
13	0xbd616eb4	-0.055037215
14	0xbce97409	-0.028497713
15	0x3eb3249c	0.34988868
16	0xbd9f7c30	-0.07787359
17	0x3e52345c	0.20527786
18	0xbd16547a	-0.036701657
19	0xbdcc9bb3	-0.09990635
20	0x3a04d538	0.00050671725
21	0xbe07a430	-0.13246226
22	0x3e321e6d	0.17394419
23	0x3def0011	0.116699345
24	0xbe426cf3	-0.18986873
25	0x3daae356	0.08344142
26	0x3e0089a1	0.12552501
27	0x3e343d78	0.17601573
28	0xbebc7bfa	-0.36813337
29	0x3d64fae9	0.05590335
30	0xbd585452	-0.05281479
31	0x3df4624b	0.119328104
32	0x3d945b6d	0.072440006
33	0x3dc4c45f	0.09607767
34	0xbcdbf417	-0.02684979
35	0x3dcceedc	0.10006496
36	0xbd3ffa95	-0.046869833
37	0xbdabae1f	-0.0838282
38	0xbc699313	-0.014256257
39	0xbcca6988	-0.024708524
40	0x3e97f78d	0.29681054
41	0x3d72d665	0.059286494
42	0xbdeacbb4	-0.114646345
43	0x3bc4518c	0.0059911665
44	0x3d3d96b7	0.04628631
45	0xbe2ef15e	-0.17084262
46	0x3d2a36cd	0.04155617
47	0xbe5c1e7e	-0.21496007
48	0xbe235829	-0.15951599
49	0x3d2b2b4b	0.041789334
50	0xbc7d6f75	-0.015468468
51	0x3e5189f0	0.20462775
52	0xbd035a6c	-0.032068655
53	0xbd5dd497	-0.05415782
54	0xbd4812ed	-0.048846174
55	0xbdd7845e	-0.10523294
56	0x3d22db6d	0.039760042
57	0xbd51925f	-0.05116498
58	0x3e0ee4c1	0.1395445
59	0x3df49cae	0.11943947
60	0xbb561ad6	-0.0032669804
61	0x3d49090c	0.049080893
62	0x3d1d68c0	0.038429976
63	0x3d85178d	0.064986326
64	0x3daf3a9f	0.08556103
65	0x3e220196	0.15820917
66	0x3d0655f5	0.03279682
67	0x3cadf0ca	0.021232981
68	0xbcaebb8f	-0.02132967
69	0x3e25525c	0.16144699
70	0xbc4300dc	-0.01190206
71	0x3ce70e89	0.028205173
72	0x3e1d2ef9	0.1534995
73	0xbd1bb420	-0.038013577
74	0x3eb4a3f0	0.35281324
75	0x3e06c316	0.13160357
76	0x3e18abfc	0.14909357
77	0xbbd5871b	-0.00651635
78	0x3d9cd05a	0.076569274
79	0x3dd80344	0.10547498
80	0x3e858c25	0.26083484
81	0x3e2c2ba5	0.16813524
82	0x3e5ddab9	0.21665467
83	0x3dc85fa5	0.09783868
84	0x3e94aacd	0.2903656
85	0xbc8523f5	-0.016252497
86	0xbd017599	-0.03160629
87	0xbf1fc6ce	-0.62412727
88	0xbc410ce8	-0.011782862
89	0x3e6b29cf	0.22965167
90	0x3e33a8d3	0.1754487
91	0x3de6817c	0.11255166
92	0x3d029278	0.031877965
93	0xbe81ea44	-0.25374043
94	0xbcfe706c	-0.031059466
95	0xbebf541a	-0.37368852
96	0xbe01dcc2	-0.12681869
97	0xbd3f4ecc	-0.046706006
98	0xbd8699b6	-0.06572287
99	0xbe3601c1	-0.17774107
100	0xbde376b5	-0.11106626
101	0x3e62b19f	0.2213807
102	0x3ea8a0d7	0.3293521
103	0x3e644c57	0.22294746
104	0xbdcfdac5	-0.10149149
105	0xbdb267fa	-0.08711238
106	0xbe029e39	-0.1275567
107	0x3d0d18ed	0.0344476
108	0xbc8dca38	-0.01730834
109	0xbd9b34e8	-0.075784504
110	0xbe8ed11d	-0.27893916
111	0xbdee7058	-0.116425216
112	0xbe6aa272	-0.2291353
113	0xbd80877f	-0.06275844
114	0x3c6000e4	0.013672087
115	0xbee03a20	-0.43794346
116	0x3e8633f9	0.26211527
117	0xbecb91a8	-0.39759564
118	0x3d1ed227	0.038774636
119	0xb9d75763	-0.00041073104
120	0xbdcc4f88	-0.09976107
121	0x3ea10795	0.31451097
122	0x3907e7c8	0.00012960949
123	0xbcc7bcde	-0.024382051
124	0xbe5caf3a	-0.21551219
125	0xbd2d2f1e	-0.042281263
126	0x3d6b07ab	0.05738036
127	0xbdba28be	-0.09089802
128	0xbc3999fa	-0.011328215
129	0xbeb63638	-0.3558824
130	0x3c5aa27a	0.0133444015
131	0xbebabab0	-0.36470556
132	0x3eabd426	0.33560294
133	0xbdb4e5df	-0.08832907
134	0x3dd667a1	0.104689844
135	0x3e82595d	0.25458804
136	0xbd6e1e49	-0.05813435
137	0x3c382a31	0.011240528
138	0xbdc4acde	-0.09603284
139	0x3c93fce0	0.018064916
140	0xbc329cd2	-0.010901647
141	0x3c8369b1	0.016041609
142	0xbdd7de69	-0.10540468
143	0x3d07fcb7	0.033199992
144	0x3d2be41a	0.04196558
145	0xbc346799	-0.011011028
146	0x3e039b25	0.12852152
147	0xbdb5ed89	-0.08883197
148	0xbc99b97b	-0.018765202
149	0xbed20f1e	-0.41027158
150	0x3d848334	0.064703375
151	0x3e52ef7b	0.20599167
152	0x3df614be	0.12015675
153	0x3ecc0549	0.39847782
154	0xbe096f26	-0.13421306
155	0xbd8439b5	-0.06456319
156	0xbe4f9eb6	-0.20275387
157	0x3d8e1d8f	0.069392316
158	0x3e0a879a	0.1352829
159	0x3d0158b7	0.031578746
160	0x3e8f4c23	0.27987775
161	0xbd76023c	-0.060060725
162	0x3dffb017	0.12484758
163	0x3b5e4eb0	0.0033921413
164	0x3dfbe7f0	0.12300098
165	0x3ec8b9d3	0.39204273
166	0x3e4833ab	0.1955096
167	0x3e1c2817	0.15249668
168	0xbdefd938	-0.11711353
169	0xbce44aad	-0.02786764
170	0x3d90f914	0.07078758
171	0x3e993ae1	0.29927734
172	0x3e0ccf64	0.13750988
173	0x3c034150	0.008011177
174	0x3db7739b	0.08957597
175	0xbcc3f4b5	-0.023920396
176	0xbdfef46b	-0.12448963
177	0x3de55685	0.11198143
178	0x3e235d40	0.15953541
179	0x3e5851a1	0.21124889
180	0x3e0ec8d0	0.13943791
181	0xbda8071c	-0.08204481
182	0x3d42a7de	0.047523372
183	0x3d0d4fc5	0.034499902
184	0xbd0206d5	-0.031744797
185	0x3c0ee8d5	0.008722504
186	0xbe094b20	-0.13407564
187	0xbd8643c3	-0.06555893
188	0xbc985c46	-0.018598687
189	0x3dec3b54	0.115347534
190	0x3d8d0b7e	0.068869576
191	0x3d7bd1d8	0.06147942
192	0xbd1baa19	-0.038004015
193	0x3d2228fd	0.03958987
194	0x3eab7f59	0.33495596
195	0xbe24e55e	-0.16103122
196	0x3dbae3b2	0.09125461
197	0x3db55131	0.08853377
198	0x3e1273c0	0.14301968
199	0xbba98530	-0.005173348
200	0x3c90d708	0.01768066
201	0x3ea1970e	0.31560558
202	0x3e2d8882	0.16946605
203	0x3e089cb4	0.13341027
204	0x3e238329	0.15968002
205	0xbe45e4fd	-0.19325633
206	0x3cf16dfc	0.02947139
207	0x3e4e2af0	0.20133567
208	0xbd899cff	-0.06719398
209	0x3e49dd27	0.19713269
210	0xbdcf04bf	-0.10108327
211	0xbd66b2a0	-0.056322694
212	0xbe2889cd	-0.16458817
213	0x3db7462d	0.08948932
214	0xbc70a4c1	-0.014687718
215	0x3e95f70c	0.29290044
216	0xbc53be74	-0.0129238255
217	0xbc36afa9	-0.011150279
218	0xbdbbfdce	-0.09179269
219	0xbe0d7950	-0.13815808
220	0x3d09c00e	0.033630423
221	0x3da7d1cb	0.08194312
222	0xbdbfbc1f	-0.09362053
223	0x3e0b573f	0.136075
224	0xbd460d09	-0.048352275
225	0xbddbd461	-0.107338674
226	0x3d96679f	0.07343983
227	0x3da637f3	0.0811614
228	0xbe3d79f1	-0.18503548
229	0x3d88659c	0.066600055
230	0xbcb6fccf	-0.022337345
231	0x3d91c8a0	0.07118344
232	0xbd860a61	-0.06544948
233	0x3e9ae352	0.30251557
234	0x3c68f065	0.014217471
235	0xbdcdf4ec	-0.10056481
236	0x3e248cb1	0.16069295
237	0xbe831d9e	-0.25608534
238	0x3e41c2a3	0.18921904
239	0x3c3613cb	0.011113117
240	0x3e4f4ecb	0.20244901
241	0xbe947734	-0.28997195
242	0xbd57ff77	-0.052733865
243	0x3b30cd7d	0.002697795
244	0x3dd8ed19	0.10592098
245	0xbc35148b	-0.011052261
246	0xbb2d7b6e	-0.0026471275
247	0xbd006353	-0.031344723
248	0xbd9516ce	-0.0727974
249	0xbe029f7a	-0.12756148
250	0x3cb36e23	0.021903103
251	0xbccf9036	-0.02533732
252	0xbd81fff0	-0.06347644
253	0xbe66b37b	-0.22529404
254	0x3d228b1e	0.039683454
255	0x3e7c72a6	0.2465311

fc3.bias f4 [10]
0	0xbdd929e0	-0.1060369
1	0xbe694762	-0.22781137
2	0xbe09279a	-0.13394013
3	0x3e6d6d80	0.23186302
4	0x3e45487f	0.19265936
5	0xbe02a481	-0.12758066
6	0xbd6587ce	-0.056037717
7	0xbe5fd074	-0.21856862
8	0x3dcd1f85	0.100157775
9	0x3e08209b	0.13293688
